name: "ResNet%d"
input: "data"
  input_shape {
    dim: 1
    dim: 3
    dim: 224
    dim: 224
  }

  input: "im_info"
  input_shape {
    dim: 1
    dim: 3
  }

layer {
    bottom: "data"
    top: "conv1"
    name: "conv1"
    type: "Convolution"
    param {
        lr_mult: 0
        decay_mult: 0
    }
    convolution_param {
        num_output: 64
        kernel_size: 7
        pad: 3
        stride: 2
        bias_term: false
    }
}

layer {
    bottom: "conv1"
    top: "conv1"
    name: "bn_conv1"
    type: "BatchNorm"
    batch_norm_param {
        use_global_stats: true
    }
    param {
        lr_mult: 0
        decay_mult: 0
    }
    param {
        lr_mult: 0
        decay_mult: 0
    }
    param {
        lr_mult: 0
        decay_mult: 0
    }
}

layer {
    bottom: "conv1"
    top: "conv1"
    name: "scale_conv1"
    type: "Scale"
    scale_param {
        bias_term: true
    }
    param {
        lr_mult: 0
        decay_mult: 0
    }
    param {
        lr_mult: 0
        decay_mult: 0
    }
}

layer {
    bottom: "conv1"
    top: "conv1"
    name: "conv1_relu"
    type: "ReLU"
}   

layer {
    bottom: "conv1"
    top: "pool1"
    name: "pool1"
    type: "Pooling"
    pooling_param {
        kernel_size: 3
        stride: 2
        pool: MAX
    }
}

layer {
    bottom: "pool1"
    top: "res2a_branch1"
    name: "res2a_branch1"
    type: "Convolution"
    param {
        lr_mult: 0
        decay_mult: 0
    }
    convolution_param {
        num_output: 256
        kernel_size: 1
        pad: 0
        stride: 1
        bias_term: false
    }
}

layer {
    bottom: "res2a_branch1"
    top: "res2a_branch1"
    name: "bn2a_branch1"
    type: "BatchNorm"
    batch_norm_param {
        use_global_stats: true
    }
    param {
        lr_mult: 0
        decay_mult: 0
    }
    param {
        lr_mult: 0
        decay_mult: 0
    }
    param {
        lr_mult: 0
        decay_mult: 0
    }
}

layer {
    bottom: "res2a_branch1"
    top: "res2a_branch1"
    name: "scale2a_branch1"
    type: "Scale"
    scale_param {
        bias_term: true
    }
    param {
        lr_mult: 0
        decay_mult: 0
    }
    param {
        lr_mult: 0
        decay_mult: 0
    }
}

layer {
    bottom: "pool1"
    top: "res2a_branch2a"
    name: "res2a_branch2a"
    type: "Convolution"
    param {
        lr_mult: 0
        decay_mult: 0
    }
    convolution_param {
        num_output: 64
        kernel_size: 1
        pad: 0
        stride: 1
        bias_term: false
    }
}

layer {
    bottom: "res2a_branch2a"
    top: "res2a_branch2a"
    name: "bn2a_branch2a"
    type: "BatchNorm"
    batch_norm_param {
        use_global_stats: true
    }
    param {
        lr_mult: 0
        decay_mult: 0
    }
    param {
        lr_mult: 0
        decay_mult: 0
    }
    param {
        lr_mult: 0
        decay_mult: 0
    }
}

layer {
    bottom: "res2a_branch2a"
    top: "res2a_branch2a"
    name: "scale2a_branch2a"
    type: "Scale"
    scale_param {
        bias_term: true
    }
    param {
        lr_mult: 0
        decay_mult: 0
    }
    param {
        lr_mult: 0
        decay_mult: 0
    }
}

layer {
    bottom: "res2a_branch2a"
    top: "res2a_branch2a"
    name: "res2a_branch2a_relu"
    type: "ReLU"
}   

layer {
    bottom: "res2a_branch2a"
    top: "res2a_branch2b"
    name: "res2a_branch2b"
    type: "Convolution"
    param {
        lr_mult: 0
        decay_mult: 0
    }
    convolution_param {
        num_output: 64
        kernel_size: 3
        pad: 1
        stride: 1
        bias_term: false
    }
}

layer {
    bottom: "res2a_branch2b"
    top: "res2a_branch2b"
    name: "bn2a_branch2b"
    type: "BatchNorm"
    batch_norm_param {
        use_global_stats: true
    }
    param {
        lr_mult: 0
        decay_mult: 0
    }
    param {
        lr_mult: 0
        decay_mult: 0
    }
    param {
        lr_mult: 0
        decay_mult: 0
    }
}

layer {
    bottom: "res2a_branch2b"
    top: "res2a_branch2b"
    name: "scale2a_branch2b"
    type: "Scale"
    scale_param {
        bias_term: true
    }
    param {
        lr_mult: 0
        decay_mult: 0
    }
    param {
        lr_mult: 0
        decay_mult: 0
    }
}

layer {
    bottom: "res2a_branch2b"
    top: "res2a_branch2b"
    name: "res2a_branch2b_relu"
    type: "ReLU"
}   

layer {
    bottom: "res2a_branch2b"
    top: "res2a_branch2c"
    name: "res2a_branch2c"
    type: "Convolution"
    param {
        lr_mult: 0
        decay_mult: 0
    }
    convolution_param {
        num_output: 256
        kernel_size: 1
        pad: 0
        stride: 1
        bias_term: false
    }
}

layer {
    bottom: "res2a_branch2c"
    top: "res2a_branch2c"
    name: "bn2a_branch2c"
    type: "BatchNorm"
    batch_norm_param {
        use_global_stats: true
    }
    param {
        lr_mult: 0
        decay_mult: 0
    }
    param {
        lr_mult: 0
        decay_mult: 0
    }
    param {
        lr_mult: 0
        decay_mult: 0
    }
}

layer {
    bottom: "res2a_branch2c"
    top: "res2a_branch2c"
    name: "scale2a_branch2c"
    type: "Scale"
    scale_param {
        bias_term: true
    }
    param {
        lr_mult: 0
        decay_mult: 0
    }
    param {
        lr_mult: 0
        decay_mult: 0
    }
}

layer {
    bottom: "res2a_branch1"
    bottom: "res2a_branch2c"
    top: "res2a"
    name: "res2a"
    type: "Eltwise"
}

layer {
    bottom: "res2a"
    top: "res2a"
    name: "res2a_relu"
    type: "ReLU"
}   

layer {
    bottom: "res2a"
    top: "res2b_branch2a"
    name: "res2b_branch2a"
    type: "Convolution"
    param {
        lr_mult: 0
        decay_mult: 0
    }
    convolution_param {
        num_output: 64
        kernel_size: 1
        pad: 0
        stride: 1
        bias_term: false
    }
}

layer {
    bottom: "res2b_branch2a"
    top: "res2b_branch2a"
    name: "bn2b_branch2a"
    type: "BatchNorm"
    batch_norm_param {
        use_global_stats: true
    }
    param {
        lr_mult: 0
        decay_mult: 0
    }
    param {
        lr_mult: 0
        decay_mult: 0
    }
    param {
        lr_mult: 0
        decay_mult: 0
    }
}

layer {
    bottom: "res2b_branch2a"
    top: "res2b_branch2a"
    name: "scale2b_branch2a"
    type: "Scale"
    scale_param {
        bias_term: true
    }
    param {
        lr_mult: 0
        decay_mult: 0
    }
    param {
        lr_mult: 0
        decay_mult: 0
    }
}

layer {
    bottom: "res2b_branch2a"
    top: "res2b_branch2a"
    name: "res2b_branch2a_relu"
    type: "ReLU"
}   

layer {
    bottom: "res2b_branch2a"
    top: "res2b_branch2b"
    name: "res2b_branch2b"
    type: "Convolution"
    param {
        lr_mult: 0
        decay_mult: 0
    }
    convolution_param {
        num_output: 64
        kernel_size: 3
        pad: 1
        stride: 1
        bias_term: false
    }
}

layer {
    bottom: "res2b_branch2b"
    top: "res2b_branch2b"
    name: "bn2b_branch2b"
    type: "BatchNorm"
    batch_norm_param {
        use_global_stats: true
    }
    param {
        lr_mult: 0
        decay_mult: 0
    }
    param {
        lr_mult: 0
        decay_mult: 0
    }
    param {
        lr_mult: 0
        decay_mult: 0
    }
}

layer {
    bottom: "res2b_branch2b"
    top: "res2b_branch2b"
    name: "scale2b_branch2b"
    type: "Scale"
    scale_param {
        bias_term: true
    }
    param {
        lr_mult: 0
        decay_mult: 0
    }
    param {
        lr_mult: 0
        decay_mult: 0
    }
}

layer {
    bottom: "res2b_branch2b"
    top: "res2b_branch2b"
    name: "res2b_branch2b_relu"
    type: "ReLU"
}   

layer {
    bottom: "res2b_branch2b"
    top: "res2b_branch2c"
    name: "res2b_branch2c"
    type: "Convolution"
    param {
        lr_mult: 0
        decay_mult: 0
    }
    convolution_param {
        num_output: 256
        kernel_size: 1
        pad: 0
        stride: 1
        bias_term: false
    }
}

layer {
    bottom: "res2b_branch2c"
    top: "res2b_branch2c"
    name: "bn2b_branch2c"
    type: "BatchNorm"
    batch_norm_param {
        use_global_stats: true
    }
    param {
        lr_mult: 0
        decay_mult: 0
    }
    param {
        lr_mult: 0
        decay_mult: 0
    }
    param {
        lr_mult: 0
        decay_mult: 0
    }
}

layer {
    bottom: "res2b_branch2c"
    top: "res2b_branch2c"
    name: "scale2b_branch2c"
    type: "Scale"
    scale_param {
        bias_term: true
    }
    param {
        lr_mult: 0
        decay_mult: 0
    }
    param {
        lr_mult: 0
        decay_mult: 0
    }
}

layer {
    bottom: "res2a"
    bottom: "res2b_branch2c"
    top: "res2b"
    name: "res2b"
    type: "Eltwise"
}

layer {
    bottom: "res2b"
    top: "res2b"
    name: "res2b_relu"
    type: "ReLU"
}   

layer {
    bottom: "res2b"
    top: "res2c_branch2a"
    name: "res2c_branch2a"
    type: "Convolution"
    param {
        lr_mult: 0
        decay_mult: 0
    }
    convolution_param {
        num_output: 64
        kernel_size: 1
        pad: 0
        stride: 1
        bias_term: false
    }
}

layer {
    bottom: "res2c_branch2a"
    top: "res2c_branch2a"
    name: "bn2c_branch2a"
    type: "BatchNorm"
    batch_norm_param {
        use_global_stats: true
    }
    param {
        lr_mult: 0
        decay_mult: 0
    }
    param {
        lr_mult: 0
        decay_mult: 0
    }
    param {
        lr_mult: 0
        decay_mult: 0
    }
}

layer {
    bottom: "res2c_branch2a"
    top: "res2c_branch2a"
    name: "scale2c_branch2a"
    type: "Scale"
    scale_param {
        bias_term: true
    }
    param {
        lr_mult: 0
        decay_mult: 0
    }
    param {
        lr_mult: 0
        decay_mult: 0
    }
}

layer {
    bottom: "res2c_branch2a"
    top: "res2c_branch2a"
    name: "res2c_branch2a_relu"
    type: "ReLU"
}   

layer {
    bottom: "res2c_branch2a"
    top: "res2c_branch2b"
    name: "res2c_branch2b"
    type: "Convolution"
    param {
        lr_mult: 0
        decay_mult: 0
    }
    convolution_param {
        num_output: 64
        kernel_size: 3
        pad: 1
        stride: 1
        bias_term: false
    }
}

layer {
    bottom: "res2c_branch2b"
    top: "res2c_branch2b"
    name: "bn2c_branch2b"
    type: "BatchNorm"
    batch_norm_param {
        use_global_stats: true
    }
    param {
        lr_mult: 0
        decay_mult: 0
    }
    param {
        lr_mult: 0
        decay_mult: 0
    }
    param {
        lr_mult: 0
        decay_mult: 0
    }
}

layer {
    bottom: "res2c_branch2b"
    top: "res2c_branch2b"
    name: "scale2c_branch2b"
    type: "Scale"
    scale_param {
        bias_term: true
    }
    param {
        lr_mult: 0
        decay_mult: 0
    }
    param {
        lr_mult: 0
        decay_mult: 0
    }
}

layer {
    bottom: "res2c_branch2b"
    top: "res2c_branch2b"
    name: "res2c_branch2b_relu"
    type: "ReLU"
}   

layer {
    bottom: "res2c_branch2b"
    top: "res2c_branch2c"
    name: "res2c_branch2c"
    type: "Convolution"
    param {
        lr_mult: 0
        decay_mult: 0
    }
    convolution_param {
        num_output: 256
        kernel_size: 1
        pad: 0
        stride: 1
        bias_term: false
    }
}

layer {
    bottom: "res2c_branch2c"
    top: "res2c_branch2c"
    name: "bn2c_branch2c"
    type: "BatchNorm"
    batch_norm_param {
        use_global_stats: true
    }
    param {
        lr_mult: 0
        decay_mult: 0
    }
    param {
        lr_mult: 0
        decay_mult: 0
    }
    param {
        lr_mult: 0
        decay_mult: 0
    }
}

layer {
    bottom: "res2c_branch2c"
    top: "res2c_branch2c"
    name: "scale2c_branch2c"
    type: "Scale"
    scale_param {
        bias_term: true
    }
    param {
        lr_mult: 0
        decay_mult: 0
    }
    param {
        lr_mult: 0
        decay_mult: 0
    }
}

layer {
    bottom: "res2b"
    bottom: "res2c_branch2c"
    top: "res2c"
    name: "res2c"
    type: "Eltwise"
}

layer {
    bottom: "res2c"
    top: "res2c"
    name: "res2c_relu"
    type: "ReLU"
}   

layer {
    bottom: "res2c"
    top: "res3a_branch1"
    name: "res3a_branch1"
    type: "Convolution"
    param {
        lr_mult: 0
        decay_mult: 0
    }
    convolution_param {
        num_output: 512
        kernel_size: 1
        pad: 0
        stride: 2
        bias_term: false
    }
}

layer {
    bottom: "res3a_branch1"
    top: "res3a_branch1"
    name: "bn3a_branch1"
    type: "BatchNorm"
    batch_norm_param {
        use_global_stats: true
    }
    param {
        lr_mult: 0
        decay_mult: 0
    }
    param {
        lr_mult: 0
        decay_mult: 0
    }
    param {
        lr_mult: 0
        decay_mult: 0
    }
}

layer {
    bottom: "res3a_branch1"
    top: "res3a_branch1"
    name: "scale3a_branch1"
    type: "Scale"
    scale_param {
        bias_term: true
    }
    param {
        lr_mult: 0
        decay_mult: 0
    }
    param {
        lr_mult: 0
        decay_mult: 0
    }
}

layer {
    bottom: "res2c"
    top: "res3a_branch2a"
    name: "res3a_branch2a"
    type: "Convolution"
    param {
        lr_mult: 0
        decay_mult: 0
    }
    convolution_param {
        num_output: 128
        kernel_size: 1
        pad: 0
        stride: 2
        bias_term: false
    }
}

layer {
    bottom: "res3a_branch2a"
    top: "res3a_branch2a"
    name: "bn3a_branch2a"
    type: "BatchNorm"
    batch_norm_param {
        use_global_stats: true
    }
    param {
        lr_mult: 0
        decay_mult: 0
    }
    param {
        lr_mult: 0
        decay_mult: 0
    }
    param {
        lr_mult: 0
        decay_mult: 0
    }
}

layer {
    bottom: "res3a_branch2a"
    top: "res3a_branch2a"
    name: "scale3a_branch2a"
    type: "Scale"
    scale_param {
        bias_term: true
    }
    param {
        lr_mult: 0
        decay_mult: 0
    }
    param {
        lr_mult: 0
        decay_mult: 0
    }
}

layer {
    bottom: "res3a_branch2a"
    top: "res3a_branch2a"
    name: "res3a_branch2a_relu"
    type: "ReLU"
}   

layer {
    bottom: "res3a_branch2a"
    top: "res3a_branch2b"
    name: "res3a_branch2b"
    type: "Convolution"
    param {
        lr_mult: 0
        decay_mult: 0
    }
    convolution_param {
        num_output: 128
        kernel_size: 3
        pad: 1
        stride: 1
        bias_term: false
    }
}

layer {
    bottom: "res3a_branch2b"
    top: "res3a_branch2b"
    name: "bn3a_branch2b"
    type: "BatchNorm"
    batch_norm_param {
        use_global_stats: true
    }
    param {
        lr_mult: 0
        decay_mult: 0
    }
    param {
        lr_mult: 0
        decay_mult: 0
    }
    param {
        lr_mult: 0
        decay_mult: 0
    }
}

layer {
    bottom: "res3a_branch2b"
    top: "res3a_branch2b"
    name: "scale3a_branch2b"
    type: "Scale"
    scale_param {
        bias_term: true
    }
    param {
        lr_mult: 0
        decay_mult: 0
    }
    param {
        lr_mult: 0
        decay_mult: 0
    }
}

layer {
    bottom: "res3a_branch2b"
    top: "res3a_branch2b"
    name: "res3a_branch2b_relu"
    type: "ReLU"
}   

layer {
    bottom: "res3a_branch2b"
    top: "res3a_branch2c"
    name: "res3a_branch2c"
    type: "Convolution"
    param {
        lr_mult: 0
        decay_mult: 0
    }
    convolution_param {
        num_output: 512
        kernel_size: 1
        pad: 0
        stride: 1
        bias_term: false
    }
}

layer {
    bottom: "res3a_branch2c"
    top: "res3a_branch2c"
    name: "bn3a_branch2c"
    type: "BatchNorm"
    batch_norm_param {
        use_global_stats: true
    }
    param {
        lr_mult: 0
        decay_mult: 0
    }
    param {
        lr_mult: 0
        decay_mult: 0
    }
    param {
        lr_mult: 0
        decay_mult: 0
    }
}

layer {
    bottom: "res3a_branch2c"
    top: "res3a_branch2c"
    name: "scale3a_branch2c"
    type: "Scale"
    scale_param {
        bias_term: true
    }
    param {
        lr_mult: 0
        decay_mult: 0
    }
    param {
        lr_mult: 0
        decay_mult: 0
    }
}

layer {
    bottom: "res3a_branch1"
    bottom: "res3a_branch2c"
    top: "res3a"
    name: "res3a"
    type: "Eltwise"
}

layer {
    bottom: "res3a"
    top: "res3a"
    name: "res3a_relu"
    type: "ReLU"
}   

layer {
    bottom: "res3a"
    top: "res3b_branch2a"
    name: "res3b_branch2a"
    type: "Convolution"
    param {
        lr_mult: 0
        decay_mult: 0
    }
    convolution_param {
        num_output: 128
        kernel_size: 1
        pad: 0
        stride: 1
        bias_term: false
    }
}

layer {
    bottom: "res3b_branch2a"
    top: "res3b_branch2a"
    name: "bn3b_branch2a"
    type: "BatchNorm"
    batch_norm_param {
        use_global_stats: true
    }
    param {
        lr_mult: 0
        decay_mult: 0
    }
    param {
        lr_mult: 0
        decay_mult: 0
    }
    param {
        lr_mult: 0
        decay_mult: 0
    }
}

layer {
    bottom: "res3b_branch2a"
    top: "res3b_branch2a"
    name: "scale3b_branch2a"
    type: "Scale"
    scale_param {
        bias_term: true
    }
    param {
        lr_mult: 0
        decay_mult: 0
    }
    param {
        lr_mult: 0
        decay_mult: 0
    }
}

layer {
    bottom: "res3b_branch2a"
    top: "res3b_branch2a"
    name: "res3b_branch2a_relu"
    type: "ReLU"
}   

layer {
    bottom: "res3b_branch2a"
    top: "res3b_branch2b"
    name: "res3b_branch2b"
    type: "Convolution"
    param {
        lr_mult: 0
        decay_mult: 0
    }
    convolution_param {
        num_output: 128
        kernel_size: 3
        pad: 1
        stride: 1
        bias_term: false
    }
}

layer {
    bottom: "res3b_branch2b"
    top: "res3b_branch2b"
    name: "bn3b_branch2b"
    type: "BatchNorm"
    batch_norm_param {
        use_global_stats: true
    }
    param {
        lr_mult: 0
        decay_mult: 0
    }
    param {
        lr_mult: 0
        decay_mult: 0
    }
    param {
        lr_mult: 0
        decay_mult: 0
    }
}

layer {
    bottom: "res3b_branch2b"
    top: "res3b_branch2b"
    name: "scale3b_branch2b"
    type: "Scale"
    scale_param {
        bias_term: true
    }
    param {
        lr_mult: 0
        decay_mult: 0
    }
    param {
        lr_mult: 0
        decay_mult: 0
    }
}

layer {
    bottom: "res3b_branch2b"
    top: "res3b_branch2b"
    name: "res3b_branch2b_relu"
    type: "ReLU"
}   

layer {
    bottom: "res3b_branch2b"
    top: "res3b_branch2c"
    name: "res3b_branch2c"
    type: "Convolution"
    param {
        lr_mult: 0
        decay_mult: 0
    }
    convolution_param {
        num_output: 512
        kernel_size: 1
        pad: 0
        stride: 1
        bias_term: false
    }
}

layer {
    bottom: "res3b_branch2c"
    top: "res3b_branch2c"
    name: "bn3b_branch2c"
    type: "BatchNorm"
    batch_norm_param {
        use_global_stats: true
    }
    param {
        lr_mult: 0
        decay_mult: 0
    }
    param {
        lr_mult: 0
        decay_mult: 0
    }
    param {
        lr_mult: 0
        decay_mult: 0
    }
}

layer {
    bottom: "res3b_branch2c"
    top: "res3b_branch2c"
    name: "scale3b_branch2c"
    type: "Scale"
    scale_param {
        bias_term: true
    }
    param {
        lr_mult: 0
        decay_mult: 0
    }
    param {
        lr_mult: 0
        decay_mult: 0
    }
}

layer {
    bottom: "res3a"
    bottom: "res3b_branch2c"
    top: "res3b"
    name: "res3b"
    type: "Eltwise"
}

layer {
    bottom: "res3b"
    top: "res3b"
    name: "res3b_relu"
    type: "ReLU"
}   

layer {
    bottom: "res3b"
    top: "res3c_branch2a"
    name: "res3c_branch2a"
    type: "Convolution"
    param {
        lr_mult: 0
        decay_mult: 0
    }
    convolution_param {
        num_output: 128
        kernel_size: 1
        pad: 0
        stride: 1
        bias_term: false
    }
}

layer {
    bottom: "res3c_branch2a"
    top: "res3c_branch2a"
    name: "bn3c_branch2a"
    type: "BatchNorm"
    batch_norm_param {
        use_global_stats: true
    }
    param {
        lr_mult: 0
        decay_mult: 0
    }
    param {
        lr_mult: 0
        decay_mult: 0
    }
    param {
        lr_mult: 0
        decay_mult: 0
    }
}

layer {
    bottom: "res3c_branch2a"
    top: "res3c_branch2a"
    name: "scale3c_branch2a"
    type: "Scale"
    scale_param {
        bias_term: true
    }
    param {
        lr_mult: 0
        decay_mult: 0
    }
    param {
        lr_mult: 0
        decay_mult: 0
    }
}

layer {
    bottom: "res3c_branch2a"
    top: "res3c_branch2a"
    name: "res3c_branch2a_relu"
    type: "ReLU"
}   

layer {
    bottom: "res3c_branch2a"
    top: "res3c_branch2b"
    name: "res3c_branch2b"
    type: "Convolution"
    param {
        lr_mult: 0
        decay_mult: 0
    }
    convolution_param {
        num_output: 128
        kernel_size: 3
        pad: 1
        stride: 1
        bias_term: false
    }
}

layer {
    bottom: "res3c_branch2b"
    top: "res3c_branch2b"
    name: "bn3c_branch2b"
    type: "BatchNorm"
    batch_norm_param {
        use_global_stats: true
    }
    param {
        lr_mult: 0
        decay_mult: 0
    }
    param {
        lr_mult: 0
        decay_mult: 0
    }
    param {
        lr_mult: 0
        decay_mult: 0
    }
}

layer {
    bottom: "res3c_branch2b"
    top: "res3c_branch2b"
    name: "scale3c_branch2b"
    type: "Scale"
    scale_param {
        bias_term: true
    }
    param {
        lr_mult: 0
        decay_mult: 0
    }
    param {
        lr_mult: 0
        decay_mult: 0
    }
}

layer {
    bottom: "res3c_branch2b"
    top: "res3c_branch2b"
    name: "res3c_branch2b_relu"
    type: "ReLU"
}   

layer {
    bottom: "res3c_branch2b"
    top: "res3c_branch2c"
    name: "res3c_branch2c"
    type: "Convolution"
    param {
        lr_mult: 0
        decay_mult: 0
    }
    convolution_param {
        num_output: 512
        kernel_size: 1
        pad: 0
        stride: 1
        bias_term: false
    }
}

layer {
    bottom: "res3c_branch2c"
    top: "res3c_branch2c"
    name: "bn3c_branch2c"
    type: "BatchNorm"
    batch_norm_param {
        use_global_stats: true
    }
    param {
        lr_mult: 0
        decay_mult: 0
    }
    param {
        lr_mult: 0
        decay_mult: 0
    }
    param {
        lr_mult: 0
        decay_mult: 0
    }
}

layer {
    bottom: "res3c_branch2c"
    top: "res3c_branch2c"
    name: "scale3c_branch2c"
    type: "Scale"
    scale_param {
        bias_term: true
    }
    param {
        lr_mult: 0
        decay_mult: 0
    }
    param {
        lr_mult: 0
        decay_mult: 0
    }
}

layer {
    bottom: "res3b"
    bottom: "res3c_branch2c"
    top: "res3c"
    name: "res3c"
    type: "Eltwise"
}

layer {
    bottom: "res3c"
    top: "res3c"
    name: "res3c_relu"
    type: "ReLU"
}   

layer {
    bottom: "res3c"
    top: "res3d_branch2a"
    name: "res3d_branch2a"
    type: "Convolution"
    param {
        lr_mult: 0
        decay_mult: 0
    }
    convolution_param {
        num_output: 128
        kernel_size: 1
        pad: 0
        stride: 1
        bias_term: false
    }
}

layer {
    bottom: "res3d_branch2a"
    top: "res3d_branch2a"
    name: "bn3d_branch2a"
    type: "BatchNorm"
    batch_norm_param {
        use_global_stats: true
    }
    param {
        lr_mult: 0
        decay_mult: 0
    }
    param {
        lr_mult: 0
        decay_mult: 0
    }
    param {
        lr_mult: 0
        decay_mult: 0
    }
}

layer {
    bottom: "res3d_branch2a"
    top: "res3d_branch2a"
    name: "scale3d_branch2a"
    type: "Scale"
    scale_param {
        bias_term: true
    }
    param {
        lr_mult: 0
        decay_mult: 0
    }
    param {
        lr_mult: 0
        decay_mult: 0
    }
}

layer {
    bottom: "res3d_branch2a"
    top: "res3d_branch2a"
    name: "res3d_branch2a_relu"
    type: "ReLU"
}   

layer {
    bottom: "res3d_branch2a"
    top: "res3d_branch2b"
    name: "res3d_branch2b"
    type: "Convolution"
    param {
        lr_mult: 0
        decay_mult: 0
    }
    convolution_param {
        num_output: 128
        kernel_size: 3
        pad: 1
        stride: 1
        bias_term: false
    }
}

layer {
    bottom: "res3d_branch2b"
    top: "res3d_branch2b"
    name: "bn3d_branch2b"
    type: "BatchNorm"
    batch_norm_param {
        use_global_stats: true
    }
    param {
        lr_mult: 0
        decay_mult: 0
    }
    param {
        lr_mult: 0
        decay_mult: 0
    }
    param {
        lr_mult: 0
        decay_mult: 0
    }
}

layer {
    bottom: "res3d_branch2b"
    top: "res3d_branch2b"
    name: "scale3d_branch2b"
    type: "Scale"
    scale_param {
        bias_term: true
    }
    param {
        lr_mult: 0
        decay_mult: 0
    }
    param {
        lr_mult: 0
        decay_mult: 0
    }
}

layer {
    bottom: "res3d_branch2b"
    top: "res3d_branch2b"
    name: "res3d_branch2b_relu"
    type: "ReLU"
}   

layer {
    bottom: "res3d_branch2b"
    top: "res3d_branch2c"
    name: "res3d_branch2c"
    type: "Convolution"
    param {
        lr_mult: 0
        decay_mult: 0
    }
    convolution_param {
        num_output: 512
        kernel_size: 1
        pad: 0
        stride: 1
        bias_term: false
    }
}

layer {
    bottom: "res3d_branch2c"
    top: "res3d_branch2c"
    name: "bn3d_branch2c"
    type: "BatchNorm"
    batch_norm_param {
        use_global_stats: true
    }
    param {
        lr_mult: 0
        decay_mult: 0
    }
    param {
        lr_mult: 0
        decay_mult: 0
    }
    param {
        lr_mult: 0
        decay_mult: 0
    }
}

layer {
    bottom: "res3d_branch2c"
    top: "res3d_branch2c"
    name: "scale3d_branch2c"
    type: "Scale"
    scale_param {
        bias_term: true
    }
    param {
        lr_mult: 0
        decay_mult: 0
    }
    param {
        lr_mult: 0
        decay_mult: 0
    }
}

layer {
    bottom: "res3c"
    bottom: "res3d_branch2c"
    top: "res3d"
    name: "res3d"
    type: "Eltwise"
}

layer {
    bottom: "res3d"
    top: "res3d"
    name: "res3d_relu"
    type: "ReLU"
}   

layer {
    bottom: "res3d"
    top: "res4a_branch1"
    name: "res4a_branch1"
    type: "Convolution"
    param {
        lr_mult: 0
        decay_mult: 0
    }
    convolution_param {
        num_output: 1024
        kernel_size: 1
        pad: 0
        stride: 2
        bias_term: false
    }
}

layer {
    bottom: "res4a_branch1"
    top: "res4a_branch1"
    name: "bn4a_branch1"
    type: "BatchNorm"
    batch_norm_param {
        use_global_stats: true
    }
    param {
        lr_mult: 0
        decay_mult: 0
    }
    param {
        lr_mult: 0
        decay_mult: 0
    }
    param {
        lr_mult: 0
        decay_mult: 0
    }
}

layer {
    bottom: "res4a_branch1"
    top: "res4a_branch1"
    name: "scale4a_branch1"
    type: "Scale"
    scale_param {
        bias_term: true
    }
    param {
        lr_mult: 0
        decay_mult: 0
    }
    param {
        lr_mult: 0
        decay_mult: 0
    }
}

layer {
    bottom: "res3d"
    top: "res4a_branch2a"
    name: "res4a_branch2a"
    type: "Convolution"
    param {
        lr_mult: 0
        decay_mult: 0
    }
    convolution_param {
        num_output: 256
        kernel_size: 1
        pad: 0
        stride: 2
        bias_term: false
    }
}

layer {
    bottom: "res4a_branch2a"
    top: "res4a_branch2a"
    name: "bn4a_branch2a"
    type: "BatchNorm"
    batch_norm_param {
        use_global_stats: true
    }
    param {
        lr_mult: 0
        decay_mult: 0
    }
    param {
        lr_mult: 0
        decay_mult: 0
    }
    param {
        lr_mult: 0
        decay_mult: 0
    }
}

layer {
    bottom: "res4a_branch2a"
    top: "res4a_branch2a"
    name: "scale4a_branch2a"
    type: "Scale"
    scale_param {
        bias_term: true
    }
    param {
        lr_mult: 0
        decay_mult: 0
    }
    param {
        lr_mult: 0
        decay_mult: 0
    }
}

layer {
    bottom: "res4a_branch2a"
    top: "res4a_branch2a"
    name: "res4a_branch2a_relu"
    type: "ReLU"
}   

layer {
    bottom: "res4a_branch2a"
    top: "res4a_branch2b"
    name: "res4a_branch2b"
    type: "Convolution"
    param {
        lr_mult: 0
        decay_mult: 0
    }
    convolution_param {
        num_output: 256
        kernel_size: 3
        pad: 1
        stride: 1
        bias_term: false
    }
}

layer {
    bottom: "res4a_branch2b"
    top: "res4a_branch2b"
    name: "bn4a_branch2b"
    type: "BatchNorm"
    batch_norm_param {
        use_global_stats: true
    }
    param {
        lr_mult: 0
        decay_mult: 0
    }
    param {
        lr_mult: 0
        decay_mult: 0
    }
    param {
        lr_mult: 0
        decay_mult: 0
    }
}

layer {
    bottom: "res4a_branch2b"
    top: "res4a_branch2b"
    name: "scale4a_branch2b"
    type: "Scale"
    scale_param {
        bias_term: true
    }
    param {
        lr_mult: 0
        decay_mult: 0
    }
    param {
        lr_mult: 0
        decay_mult: 0
    }
}

layer {
    bottom: "res4a_branch2b"
    top: "res4a_branch2b"
    name: "res4a_branch2b_relu"
    type: "ReLU"
}   

layer {
    bottom: "res4a_branch2b"
    top: "res4a_branch2c"
    name: "res4a_branch2c"
    type: "Convolution"
    param {
        lr_mult: 0
        decay_mult: 0
    }
    convolution_param {
        num_output: 1024
        kernel_size: 1
        pad: 0
        stride: 1
        bias_term: false
    }
}

layer {
    bottom: "res4a_branch2c"
    top: "res4a_branch2c"
    name: "bn4a_branch2c"
    type: "BatchNorm"
    batch_norm_param {
        use_global_stats: true
    }
    param {
        lr_mult: 0
        decay_mult: 0
    }
    param {
        lr_mult: 0
        decay_mult: 0
    }
    param {
        lr_mult: 0
        decay_mult: 0
    }
}

layer {
    bottom: "res4a_branch2c"
    top: "res4a_branch2c"
    name: "scale4a_branch2c"
    type: "Scale"
    scale_param {
        bias_term: true
    }
    param {
        lr_mult: 0
        decay_mult: 0
    }
    param {
        lr_mult: 0
        decay_mult: 0
    }
}

layer {
    bottom: "res4a_branch1"
    bottom: "res4a_branch2c"
    top: "res4a"
    name: "res4a"
    type: "Eltwise"
}

layer {
    bottom: "res4a"
    top: "res4a"
    name: "res4a_relu"
    type: "ReLU"
}   

layer {
    bottom: "res4a"
    top: "res4b_branch2a"
    name: "res4b_branch2a"
    type: "Convolution"
    param {
        lr_mult: 0
        decay_mult: 0
    }
    convolution_param {
        num_output: 256
        kernel_size: 1
        pad: 0
        stride: 1
        bias_term: false
    }
}

layer {
    bottom: "res4b_branch2a"
    top: "res4b_branch2a"
    name: "bn4b_branch2a"
    type: "BatchNorm"
    batch_norm_param {
        use_global_stats: true
    }
    param {
        lr_mult: 0
        decay_mult: 0
    }
    param {
        lr_mult: 0
        decay_mult: 0
    }
    param {
        lr_mult: 0
        decay_mult: 0
    }
}

layer {
    bottom: "res4b_branch2a"
    top: "res4b_branch2a"
    name: "scale4b_branch2a"
    type: "Scale"
    scale_param {
        bias_term: true
    }
    param {
        lr_mult: 0
        decay_mult: 0
    }
    param {
        lr_mult: 0
        decay_mult: 0
    }
}

layer {
    bottom: "res4b_branch2a"
    top: "res4b_branch2a"
    name: "res4b_branch2a_relu"
    type: "ReLU"
}   

layer {
    bottom: "res4b_branch2a"
    top: "res4b_branch2b"
    name: "res4b_branch2b"
    type: "Convolution"
    param {
        lr_mult: 0
        decay_mult: 0
    }
    convolution_param {
        num_output: 256
        kernel_size: 3
        pad: 1
        stride: 1
        bias_term: false
    }
}

layer {
    bottom: "res4b_branch2b"
    top: "res4b_branch2b"
    name: "bn4b_branch2b"
    type: "BatchNorm"
    batch_norm_param {
        use_global_stats: true
    }
    param {
        lr_mult: 0
        decay_mult: 0
    }
    param {
        lr_mult: 0
        decay_mult: 0
    }
    param {
        lr_mult: 0
        decay_mult: 0
    }
}

layer {
    bottom: "res4b_branch2b"
    top: "res4b_branch2b"
    name: "scale4b_branch2b"
    type: "Scale"
    scale_param {
        bias_term: true
    }
    param {
        lr_mult: 0
        decay_mult: 0
    }
    param {
        lr_mult: 0
        decay_mult: 0
    }
}

layer {
    bottom: "res4b_branch2b"
    top: "res4b_branch2b"
    name: "res4b_branch2b_relu"
    type: "ReLU"
}   

layer {
    bottom: "res4b_branch2b"
    top: "res4b_branch2c"
    name: "res4b_branch2c"
    type: "Convolution"
    param {
        lr_mult: 0
        decay_mult: 0
    }
    convolution_param {
        num_output: 1024
        kernel_size: 1
        pad: 0
        stride: 1
        bias_term: false
    }
}

layer {
    bottom: "res4b_branch2c"
    top: "res4b_branch2c"
    name: "bn4b_branch2c"
    type: "BatchNorm"
    batch_norm_param {
        use_global_stats: true
    }
    param {
        lr_mult: 0
        decay_mult: 0
    }
    param {
        lr_mult: 0
        decay_mult: 0
    }
    param {
        lr_mult: 0
        decay_mult: 0
    }
}

layer {
    bottom: "res4b_branch2c"
    top: "res4b_branch2c"
    name: "scale4b_branch2c"
    type: "Scale"
    scale_param {
        bias_term: true
    }
    param {
        lr_mult: 0
        decay_mult: 0
    }
    param {
        lr_mult: 0
        decay_mult: 0
    }
}

layer {
    bottom: "res4a"
    bottom: "res4b_branch2c"
    top: "res4b"
    name: "res4b"
    type: "Eltwise"
}

layer {
    bottom: "res4b"
    top: "res4b"
    name: "res4b_relu"
    type: "ReLU"
}   

layer {
    bottom: "res4b"
    top: "res4c_branch2a"
    name: "res4c_branch2a"
    type: "Convolution"
    param {
        lr_mult: 0
        decay_mult: 0
    }
    convolution_param {
        num_output: 256
        kernel_size: 1
        pad: 0
        stride: 1
        bias_term: false
    }
}

layer {
    bottom: "res4c_branch2a"
    top: "res4c_branch2a"
    name: "bn4c_branch2a"
    type: "BatchNorm"
    batch_norm_param {
        use_global_stats: true
    }
    param {
        lr_mult: 0
        decay_mult: 0
    }
    param {
        lr_mult: 0
        decay_mult: 0
    }
    param {
        lr_mult: 0
        decay_mult: 0
    }
}

layer {
    bottom: "res4c_branch2a"
    top: "res4c_branch2a"
    name: "scale4c_branch2a"
    type: "Scale"
    scale_param {
        bias_term: true
    }
    param {
        lr_mult: 0
        decay_mult: 0
    }
    param {
        lr_mult: 0
        decay_mult: 0
    }
}

layer {
    bottom: "res4c_branch2a"
    top: "res4c_branch2a"
    name: "res4c_branch2a_relu"
    type: "ReLU"
}   

layer {
    bottom: "res4c_branch2a"
    top: "res4c_branch2b"
    name: "res4c_branch2b"
    type: "Convolution"
    param {
        lr_mult: 0
        decay_mult: 0
    }
    convolution_param {
        num_output: 256
        kernel_size: 3
        pad: 1
        stride: 1
        bias_term: false
    }
}

layer {
    bottom: "res4c_branch2b"
    top: "res4c_branch2b"
    name: "bn4c_branch2b"
    type: "BatchNorm"
    batch_norm_param {
        use_global_stats: true
    }
    param {
        lr_mult: 0
        decay_mult: 0
    }
    param {
        lr_mult: 0
        decay_mult: 0
    }
    param {
        lr_mult: 0
        decay_mult: 0
    }
}

layer {
    bottom: "res4c_branch2b"
    top: "res4c_branch2b"
    name: "scale4c_branch2b"
    type: "Scale"
    scale_param {
        bias_term: true
    }
    param {
        lr_mult: 0
        decay_mult: 0
    }
    param {
        lr_mult: 0
        decay_mult: 0
    }
}

layer {
    bottom: "res4c_branch2b"
    top: "res4c_branch2b"
    name: "res4c_branch2b_relu"
    type: "ReLU"
}   

layer {
    bottom: "res4c_branch2b"
    top: "res4c_branch2c"
    name: "res4c_branch2c"
    type: "Convolution"
    param {
        lr_mult: 0
        decay_mult: 0
    }
    convolution_param {
        num_output: 1024
        kernel_size: 1
        pad: 0
        stride: 1
        bias_term: false
    }
}

layer {
    bottom: "res4c_branch2c"
    top: "res4c_branch2c"
    name: "bn4c_branch2c"
    type: "BatchNorm"
    batch_norm_param {
        use_global_stats: true
    }
    param {
        lr_mult: 0
        decay_mult: 0
    }
    param {
        lr_mult: 0
        decay_mult: 0
    }
    param {
        lr_mult: 0
        decay_mult: 0
    }
}

layer {
    bottom: "res4c_branch2c"
    top: "res4c_branch2c"
    name: "scale4c_branch2c"
    type: "Scale"
    scale_param {
        bias_term: true
    }
    param {
        lr_mult: 0
        decay_mult: 0
    }
    param {
        lr_mult: 0
        decay_mult: 0
    }
}

layer {
    bottom: "res4b"
    bottom: "res4c_branch2c"
    top: "res4c"
    name: "res4c"
    type: "Eltwise"
}

layer {
    bottom: "res4c"
    top: "res4c"
    name: "res4c_relu"
    type: "ReLU"
}   

layer {
    bottom: "res4c"
    top: "res4d_branch2a"
    name: "res4d_branch2a"
    type: "Convolution"
    param {
        lr_mult: 0
        decay_mult: 0
    }
    convolution_param {
        num_output: 256
        kernel_size: 1
        pad: 0
        stride: 1
        bias_term: false
    }
}

layer {
    bottom: "res4d_branch2a"
    top: "res4d_branch2a"
    name: "bn4d_branch2a"
    type: "BatchNorm"
    batch_norm_param {
        use_global_stats: true
    }
    param {
        lr_mult: 0
        decay_mult: 0
    }
    param {
        lr_mult: 0
        decay_mult: 0
    }
    param {
        lr_mult: 0
        decay_mult: 0
    }
}

layer {
    bottom: "res4d_branch2a"
    top: "res4d_branch2a"
    name: "scale4d_branch2a"
    type: "Scale"
    scale_param {
        bias_term: true
    }
    param {
        lr_mult: 0
        decay_mult: 0
    }
    param {
        lr_mult: 0
        decay_mult: 0
    }
}

layer {
    bottom: "res4d_branch2a"
    top: "res4d_branch2a"
    name: "res4d_branch2a_relu"
    type: "ReLU"
}   

layer {
    bottom: "res4d_branch2a"
    top: "res4d_branch2b"
    name: "res4d_branch2b"
    type: "Convolution"
    param {
        lr_mult: 0
        decay_mult: 0
    }
    convolution_param {
        num_output: 256
        kernel_size: 3
        pad: 1
        stride: 1
        bias_term: false
    }
}

layer {
    bottom: "res4d_branch2b"
    top: "res4d_branch2b"
    name: "bn4d_branch2b"
    type: "BatchNorm"
    batch_norm_param {
        use_global_stats: true
    }
    param {
        lr_mult: 0
        decay_mult: 0
    }
    param {
        lr_mult: 0
        decay_mult: 0
    }
    param {
        lr_mult: 0
        decay_mult: 0
    }
}

layer {
    bottom: "res4d_branch2b"
    top: "res4d_branch2b"
    name: "scale4d_branch2b"
    type: "Scale"
    scale_param {
        bias_term: true
    }
    param {
        lr_mult: 0
        decay_mult: 0
    }
    param {
        lr_mult: 0
        decay_mult: 0
    }
}

layer {
    bottom: "res4d_branch2b"
    top: "res4d_branch2b"
    name: "res4d_branch2b_relu"
    type: "ReLU"
}   

layer {
    bottom: "res4d_branch2b"
    top: "res4d_branch2c"
    name: "res4d_branch2c"
    type: "Convolution"
    param {
        lr_mult: 0
        decay_mult: 0
    }
    convolution_param {
        num_output: 1024
        kernel_size: 1
        pad: 0
        stride: 1
        bias_term: false
    }
}

layer {
    bottom: "res4d_branch2c"
    top: "res4d_branch2c"
    name: "bn4d_branch2c"
    type: "BatchNorm"
    batch_norm_param {
        use_global_stats: true
    }
    param {
        lr_mult: 0
        decay_mult: 0
    }
    param {
        lr_mult: 0
        decay_mult: 0
    }
    param {
        lr_mult: 0
        decay_mult: 0
    }
}

layer {
    bottom: "res4d_branch2c"
    top: "res4d_branch2c"
    name: "scale4d_branch2c"
    type: "Scale"
    scale_param {
        bias_term: true
    }
    param {
        lr_mult: 0
        decay_mult: 0
    }
    param {
        lr_mult: 0
        decay_mult: 0
    }
}

layer {
    bottom: "res4c"
    bottom: "res4d_branch2c"
    top: "res4d"
    name: "res4d"
    type: "Eltwise"
}

layer {
    bottom: "res4d"
    top: "res4d"
    name: "res4d_relu"
    type: "ReLU"
}   

layer {
    bottom: "res4d"
    top: "res4e_branch2a"
    name: "res4e_branch2a"
    type: "Convolution"
    param {
        lr_mult: 0
        decay_mult: 0
    }
    convolution_param {
        num_output: 256
        kernel_size: 1
        pad: 0
        stride: 1
        bias_term: false
    }
}

layer {
    bottom: "res4e_branch2a"
    top: "res4e_branch2a"
    name: "bn4e_branch2a"
    type: "BatchNorm"
    batch_norm_param {
        use_global_stats: true
    }
    param {
        lr_mult: 0
        decay_mult: 0
    }
    param {
        lr_mult: 0
        decay_mult: 0
    }
    param {
        lr_mult: 0
        decay_mult: 0
    }
}

layer {
    bottom: "res4e_branch2a"
    top: "res4e_branch2a"
    name: "scale4e_branch2a"
    type: "Scale"
    scale_param {
        bias_term: true
    }
    param {
        lr_mult: 0
        decay_mult: 0
    }
    param {
        lr_mult: 0
        decay_mult: 0
    }
}

layer {
    bottom: "res4e_branch2a"
    top: "res4e_branch2a"
    name: "res4e_branch2a_relu"
    type: "ReLU"
}   

layer {
    bottom: "res4e_branch2a"
    top: "res4e_branch2b"
    name: "res4e_branch2b"
    type: "Convolution"
    param {
        lr_mult: 0
        decay_mult: 0
    }
    convolution_param {
        num_output: 256
        kernel_size: 3
        pad: 1
        stride: 1
        bias_term: false
    }
}

layer {
    bottom: "res4e_branch2b"
    top: "res4e_branch2b"
    name: "bn4e_branch2b"
    type: "BatchNorm"
    batch_norm_param {
        use_global_stats: true
    }
    param {
        lr_mult: 0
        decay_mult: 0
    }
    param {
        lr_mult: 0
        decay_mult: 0
    }
    param {
        lr_mult: 0
        decay_mult: 0
    }
}

layer {
    bottom: "res4e_branch2b"
    top: "res4e_branch2b"
    name: "scale4e_branch2b"
    type: "Scale"
    scale_param {
        bias_term: true
    }
    param {
        lr_mult: 0
        decay_mult: 0
    }
    param {
        lr_mult: 0
        decay_mult: 0
    }
}

layer {
    bottom: "res4e_branch2b"
    top: "res4e_branch2b"
    name: "res4e_branch2b_relu"
    type: "ReLU"
}   

layer {
    bottom: "res4e_branch2b"
    top: "res4e_branch2c"
    name: "res4e_branch2c"
    type: "Convolution"
    param {
        lr_mult: 0
        decay_mult: 0
    }
    convolution_param {
        num_output: 1024
        kernel_size: 1
        pad: 0
        stride: 1
        bias_term: false
    }
}

layer {
    bottom: "res4e_branch2c"
    top: "res4e_branch2c"
    name: "bn4e_branch2c"
    type: "BatchNorm"
    batch_norm_param {
        use_global_stats: true
    }
    param {
        lr_mult: 0
        decay_mult: 0
    }
    param {
        lr_mult: 0
        decay_mult: 0
    }
    param {
        lr_mult: 0
        decay_mult: 0
    }
}

layer {
    bottom: "res4e_branch2c"
    top: "res4e_branch2c"
    name: "scale4e_branch2c"
    type: "Scale"
    scale_param {
        bias_term: true
    }
    param {
        lr_mult: 0
        decay_mult: 0
    }
    param {
        lr_mult: 0
        decay_mult: 0
    }
}

layer {
    bottom: "res4d"
    bottom: "res4e_branch2c"
    top: "res4e"
    name: "res4e"
    type: "Eltwise"
}

layer {
    bottom: "res4e"
    top: "res4e"
    name: "res4e_relu"
    type: "ReLU"
}   

layer {
    bottom: "res4e"
    top: "res4f_branch2a"
    name: "res4f_branch2a"
    type: "Convolution"
    param {
        lr_mult: 0
        decay_mult: 0
    }
    convolution_param {
        num_output: 256
        kernel_size: 1
        pad: 0
        stride: 1
        bias_term: false
    }
}

layer {
    bottom: "res4f_branch2a"
    top: "res4f_branch2a"
    name: "bn4f_branch2a"
    type: "BatchNorm"
    batch_norm_param {
        use_global_stats: true
    }
    param {
        lr_mult: 0
        decay_mult: 0
    }
    param {
        lr_mult: 0
        decay_mult: 0
    }
    param {
        lr_mult: 0
        decay_mult: 0
    }
}

layer {
    bottom: "res4f_branch2a"
    top: "res4f_branch2a"
    name: "scale4f_branch2a"
    type: "Scale"
    scale_param {
        bias_term: true
    }
    param {
        lr_mult: 0
        decay_mult: 0
    }
    param {
        lr_mult: 0
        decay_mult: 0
    }
}

layer {
    bottom: "res4f_branch2a"
    top: "res4f_branch2a"
    name: "res4f_branch2a_relu"
    type: "ReLU"
}   

layer {
    bottom: "res4f_branch2a"
    top: "res4f_branch2b"
    name: "res4f_branch2b"
    type: "Convolution"
    param {
        lr_mult: 0
        decay_mult: 0
    }
    convolution_param {
        num_output: 256
        kernel_size: 3
        pad: 1
        stride: 1
        bias_term: false
    }
}

layer {
    bottom: "res4f_branch2b"
    top: "res4f_branch2b"
    name: "bn4f_branch2b"
    type: "BatchNorm"
    batch_norm_param {
        use_global_stats: true
    }
    param {
        lr_mult: 0
        decay_mult: 0
    }
    param {
        lr_mult: 0
        decay_mult: 0
    }
    param {
        lr_mult: 0
        decay_mult: 0
    }
}

layer {
    bottom: "res4f_branch2b"
    top: "res4f_branch2b"
    name: "scale4f_branch2b"
    type: "Scale"
    scale_param {
        bias_term: true
    }
    param {
        lr_mult: 0
        decay_mult: 0
    }
    param {
        lr_mult: 0
        decay_mult: 0
    }
}

layer {
    bottom: "res4f_branch2b"
    top: "res4f_branch2b"
    name: "res4f_branch2b_relu"
    type: "ReLU"
}   

layer {
    bottom: "res4f_branch2b"
    top: "res4f_branch2c"
    name: "res4f_branch2c"
    type: "Convolution"
    param {
        lr_mult: 0
        decay_mult: 0
    }
    convolution_param {
        num_output: 1024
        kernel_size: 1
        pad: 0
        stride: 1
        bias_term: false
    }
}

layer {
    bottom: "res4f_branch2c"
    top: "res4f_branch2c"
    name: "bn4f_branch2c"
    type: "BatchNorm"
    batch_norm_param {
        use_global_stats: true
    }
    param {
        lr_mult: 0
        decay_mult: 0
    }
    param {
        lr_mult: 0
        decay_mult: 0
    }
    param {
        lr_mult: 0
        decay_mult: 0
    }
}

layer {
    bottom: "res4f_branch2c"
    top: "res4f_branch2c"
    name: "scale4f_branch2c"
    type: "Scale"
    scale_param {
        bias_term: true
    }
    param {
        lr_mult: 0
        decay_mult: 0
    }
    param {
        lr_mult: 0
        decay_mult: 0
    }
}

layer {
    bottom: "res4e"
    bottom: "res4f_branch2c"
    top: "res4f"
    name: "res4f"
    type: "Eltwise"
}

layer {
    bottom: "res4f"
    top: "res4f"
    name: "res4f_relu"
    type: "ReLU"
}   

layer {
    bottom: "res4f"
    top: "res4g_branch2a"
    name: "res4g_branch2a"
    type: "Convolution"
    param {
        lr_mult: 0
        decay_mult: 0
    }
    convolution_param {
        num_output: 256
        kernel_size: 1
        pad: 0
        stride: 1
        bias_term: false
    }
}

layer {
    bottom: "res4g_branch2a"
    top: "res4g_branch2a"
    name: "bn4g_branch2a"
    type: "BatchNorm"
    batch_norm_param {
        use_global_stats: true
    }
    param {
        lr_mult: 0
        decay_mult: 0
    }
    param {
        lr_mult: 0
        decay_mult: 0
    }
    param {
        lr_mult: 0
        decay_mult: 0
    }
}

layer {
    bottom: "res4g_branch2a"
    top: "res4g_branch2a"
    name: "scale4g_branch2a"
    type: "Scale"
    scale_param {
        bias_term: true
    }
    param {
        lr_mult: 0
        decay_mult: 0
    }
    param {
        lr_mult: 0
        decay_mult: 0
    }
}

layer {
    bottom: "res4g_branch2a"
    top: "res4g_branch2a"
    name: "res4g_branch2a_relu"
    type: "ReLU"
}   

layer {
    bottom: "res4g_branch2a"
    top: "res4g_branch2b"
    name: "res4g_branch2b"
    type: "Convolution"
    param {
        lr_mult: 0
        decay_mult: 0
    }
    convolution_param {
        num_output: 256
        kernel_size: 3
        pad: 1
        stride: 1
        bias_term: false
    }
}

layer {
    bottom: "res4g_branch2b"
    top: "res4g_branch2b"
    name: "bn4g_branch2b"
    type: "BatchNorm"
    batch_norm_param {
        use_global_stats: true
    }
    param {
        lr_mult: 0
        decay_mult: 0
    }
    param {
        lr_mult: 0
        decay_mult: 0
    }
    param {
        lr_mult: 0
        decay_mult: 0
    }
}

layer {
    bottom: "res4g_branch2b"
    top: "res4g_branch2b"
    name: "scale4g_branch2b"
    type: "Scale"
    scale_param {
        bias_term: true
    }
    param {
        lr_mult: 0
        decay_mult: 0
    }
    param {
        lr_mult: 0
        decay_mult: 0
    }
}

layer {
    bottom: "res4g_branch2b"
    top: "res4g_branch2b"
    name: "res4g_branch2b_relu"
    type: "ReLU"
}   

layer {
    bottom: "res4g_branch2b"
    top: "res4g_branch2c"
    name: "res4g_branch2c"
    type: "Convolution"
    param {
        lr_mult: 0
        decay_mult: 0
    }
    convolution_param {
        num_output: 1024
        kernel_size: 1
        pad: 0
        stride: 1
        bias_term: false
    }
}

layer {
    bottom: "res4g_branch2c"
    top: "res4g_branch2c"
    name: "bn4g_branch2c"
    type: "BatchNorm"
    batch_norm_param {
        use_global_stats: true
    }
    param {
        lr_mult: 0
        decay_mult: 0
    }
    param {
        lr_mult: 0
        decay_mult: 0
    }
    param {
        lr_mult: 0
        decay_mult: 0
    }
}

layer {
    bottom: "res4g_branch2c"
    top: "res4g_branch2c"
    name: "scale4g_branch2c"
    type: "Scale"
    scale_param {
        bias_term: true
    }
    param {
        lr_mult: 0
        decay_mult: 0
    }
    param {
        lr_mult: 0
        decay_mult: 0
    }
}

layer {
    bottom: "res4f"
    bottom: "res4g_branch2c"
    top: "res4g"
    name: "res4g"
    type: "Eltwise"
}

layer {
    bottom: "res4g"
    top: "res4g"
    name: "res4g_relu"
    type: "ReLU"
}   

layer {
    bottom: "res4g"
    top: "res4h_branch2a"
    name: "res4h_branch2a"
    type: "Convolution"
    param {
        lr_mult: 0
        decay_mult: 0
    }
    convolution_param {
        num_output: 256
        kernel_size: 1
        pad: 0
        stride: 1
        bias_term: false
    }
}

layer {
    bottom: "res4h_branch2a"
    top: "res4h_branch2a"
    name: "bn4h_branch2a"
    type: "BatchNorm"
    batch_norm_param {
        use_global_stats: true
    }
    param {
        lr_mult: 0
        decay_mult: 0
    }
    param {
        lr_mult: 0
        decay_mult: 0
    }
    param {
        lr_mult: 0
        decay_mult: 0
    }
}

layer {
    bottom: "res4h_branch2a"
    top: "res4h_branch2a"
    name: "scale4h_branch2a"
    type: "Scale"
    scale_param {
        bias_term: true
    }
    param {
        lr_mult: 0
        decay_mult: 0
    }
    param {
        lr_mult: 0
        decay_mult: 0
    }
}

layer {
    bottom: "res4h_branch2a"
    top: "res4h_branch2a"
    name: "res4h_branch2a_relu"
    type: "ReLU"
}   

layer {
    bottom: "res4h_branch2a"
    top: "res4h_branch2b"
    name: "res4h_branch2b"
    type: "Convolution"
    param {
        lr_mult: 0
        decay_mult: 0
    }
    convolution_param {
        num_output: 256
        kernel_size: 3
        pad: 1
        stride: 1
        bias_term: false
    }
}

layer {
    bottom: "res4h_branch2b"
    top: "res4h_branch2b"
    name: "bn4h_branch2b"
    type: "BatchNorm"
    batch_norm_param {
        use_global_stats: true
    }
    param {
        lr_mult: 0
        decay_mult: 0
    }
    param {
        lr_mult: 0
        decay_mult: 0
    }
    param {
        lr_mult: 0
        decay_mult: 0
    }
}

layer {
    bottom: "res4h_branch2b"
    top: "res4h_branch2b"
    name: "scale4h_branch2b"
    type: "Scale"
    scale_param {
        bias_term: true
    }
    param {
        lr_mult: 0
        decay_mult: 0
    }
    param {
        lr_mult: 0
        decay_mult: 0
    }
}

layer {
    bottom: "res4h_branch2b"
    top: "res4h_branch2b"
    name: "res4h_branch2b_relu"
    type: "ReLU"
}   

layer {
    bottom: "res4h_branch2b"
    top: "res4h_branch2c"
    name: "res4h_branch2c"
    type: "Convolution"
    param {
        lr_mult: 0
        decay_mult: 0
    }
    convolution_param {
        num_output: 1024
        kernel_size: 1
        pad: 0
        stride: 1
        bias_term: false
    }
}

layer {
    bottom: "res4h_branch2c"
    top: "res4h_branch2c"
    name: "bn4h_branch2c"
    type: "BatchNorm"
    batch_norm_param {
        use_global_stats: true
    }
    param {
        lr_mult: 0
        decay_mult: 0
    }
    param {
        lr_mult: 0
        decay_mult: 0
    }
    param {
        lr_mult: 0
        decay_mult: 0
    }
}

layer {
    bottom: "res4h_branch2c"
    top: "res4h_branch2c"
    name: "scale4h_branch2c"
    type: "Scale"
    scale_param {
        bias_term: true
    }
    param {
        lr_mult: 0
        decay_mult: 0
    }
    param {
        lr_mult: 0
        decay_mult: 0
    }
}

layer {
    bottom: "res4g"
    bottom: "res4h_branch2c"
    top: "res4h"
    name: "res4h"
    type: "Eltwise"
}

layer {
    bottom: "res4h"
    top: "res4h"
    name: "res4h_relu"
    type: "ReLU"
}   

layer {
    bottom: "res4h"
    top: "res4i_branch2a"
    name: "res4i_branch2a"
    type: "Convolution"
    param {
        lr_mult: 0
        decay_mult: 0
    }
    convolution_param {
        num_output: 256
        kernel_size: 1
        pad: 0
        stride: 1
        bias_term: false
    }
}

layer {
    bottom: "res4i_branch2a"
    top: "res4i_branch2a"
    name: "bn4i_branch2a"
    type: "BatchNorm"
    batch_norm_param {
        use_global_stats: true
    }
    param {
        lr_mult: 0
        decay_mult: 0
    }
    param {
        lr_mult: 0
        decay_mult: 0
    }
    param {
        lr_mult: 0
        decay_mult: 0
    }
}

layer {
    bottom: "res4i_branch2a"
    top: "res4i_branch2a"
    name: "scale4i_branch2a"
    type: "Scale"
    scale_param {
        bias_term: true
    }
    param {
        lr_mult: 0
        decay_mult: 0
    }
    param {
        lr_mult: 0
        decay_mult: 0
    }
}

layer {
    bottom: "res4i_branch2a"
    top: "res4i_branch2a"
    name: "res4i_branch2a_relu"
    type: "ReLU"
}   

layer {
    bottom: "res4i_branch2a"
    top: "res4i_branch2b"
    name: "res4i_branch2b"
    type: "Convolution"
    param {
        lr_mult: 0
        decay_mult: 0
    }
    convolution_param {
        num_output: 256
        kernel_size: 3
        pad: 1
        stride: 1
        bias_term: false
    }
}

layer {
    bottom: "res4i_branch2b"
    top: "res4i_branch2b"
    name: "bn4i_branch2b"
    type: "BatchNorm"
    batch_norm_param {
        use_global_stats: true
    }
    param {
        lr_mult: 0
        decay_mult: 0
    }
    param {
        lr_mult: 0
        decay_mult: 0
    }
    param {
        lr_mult: 0
        decay_mult: 0
    }
}

layer {
    bottom: "res4i_branch2b"
    top: "res4i_branch2b"
    name: "scale4i_branch2b"
    type: "Scale"
    scale_param {
        bias_term: true
    }
    param {
        lr_mult: 0
        decay_mult: 0
    }
    param {
        lr_mult: 0
        decay_mult: 0
    }
}

layer {
    bottom: "res4i_branch2b"
    top: "res4i_branch2b"
    name: "res4i_branch2b_relu"
    type: "ReLU"
}   

layer {
    bottom: "res4i_branch2b"
    top: "res4i_branch2c"
    name: "res4i_branch2c"
    type: "Convolution"
    param {
        lr_mult: 0
        decay_mult: 0
    }
    convolution_param {
        num_output: 1024
        kernel_size: 1
        pad: 0
        stride: 1
        bias_term: false
    }
}

layer {
    bottom: "res4i_branch2c"
    top: "res4i_branch2c"
    name: "bn4i_branch2c"
    type: "BatchNorm"
    batch_norm_param {
        use_global_stats: true
    }
    param {
        lr_mult: 0
        decay_mult: 0
    }
    param {
        lr_mult: 0
        decay_mult: 0
    }
    param {
        lr_mult: 0
        decay_mult: 0
    }
}

layer {
    bottom: "res4i_branch2c"
    top: "res4i_branch2c"
    name: "scale4i_branch2c"
    type: "Scale"
    scale_param {
        bias_term: true
    }
    param {
        lr_mult: 0
        decay_mult: 0
    }
    param {
        lr_mult: 0
        decay_mult: 0
    }
}

layer {
    bottom: "res4h"
    bottom: "res4i_branch2c"
    top: "res4i"
    name: "res4i"
    type: "Eltwise"
}

layer {
    bottom: "res4i"
    top: "res4i"
    name: "res4i_relu"
    type: "ReLU"
}   

layer {
    bottom: "res4i"
    top: "res4j_branch2a"
    name: "res4j_branch2a"
    type: "Convolution"
    param {
        lr_mult: 0
        decay_mult: 0
    }
    convolution_param {
        num_output: 256
        kernel_size: 1
        pad: 0
        stride: 1
        bias_term: false
    }
}

layer {
    bottom: "res4j_branch2a"
    top: "res4j_branch2a"
    name: "bn4j_branch2a"
    type: "BatchNorm"
    batch_norm_param {
        use_global_stats: true
    }
    param {
        lr_mult: 0
        decay_mult: 0
    }
    param {
        lr_mult: 0
        decay_mult: 0
    }
    param {
        lr_mult: 0
        decay_mult: 0
    }
}

layer {
    bottom: "res4j_branch2a"
    top: "res4j_branch2a"
    name: "scale4j_branch2a"
    type: "Scale"
    scale_param {
        bias_term: true
    }
    param {
        lr_mult: 0
        decay_mult: 0
    }
    param {
        lr_mult: 0
        decay_mult: 0
    }
}

layer {
    bottom: "res4j_branch2a"
    top: "res4j_branch2a"
    name: "res4j_branch2a_relu"
    type: "ReLU"
}   

layer {
    bottom: "res4j_branch2a"
    top: "res4j_branch2b"
    name: "res4j_branch2b"
    type: "Convolution"
    param {
        lr_mult: 0
        decay_mult: 0
    }
    convolution_param {
        num_output: 256
        kernel_size: 3
        pad: 1
        stride: 1
        bias_term: false
    }
}

layer {
    bottom: "res4j_branch2b"
    top: "res4j_branch2b"
    name: "bn4j_branch2b"
    type: "BatchNorm"
    batch_norm_param {
        use_global_stats: true
    }
    param {
        lr_mult: 0
        decay_mult: 0
    }
    param {
        lr_mult: 0
        decay_mult: 0
    }
    param {
        lr_mult: 0
        decay_mult: 0
    }
}

layer {
    bottom: "res4j_branch2b"
    top: "res4j_branch2b"
    name: "scale4j_branch2b"
    type: "Scale"
    scale_param {
        bias_term: true
    }
    param {
        lr_mult: 0
        decay_mult: 0
    }
    param {
        lr_mult: 0
        decay_mult: 0
    }
}

layer {
    bottom: "res4j_branch2b"
    top: "res4j_branch2b"
    name: "res4j_branch2b_relu"
    type: "ReLU"
}   

layer {
    bottom: "res4j_branch2b"
    top: "res4j_branch2c"
    name: "res4j_branch2c"
    type: "Convolution"
    param {
        lr_mult: 0
        decay_mult: 0
    }
    convolution_param {
        num_output: 1024
        kernel_size: 1
        pad: 0
        stride: 1
        bias_term: false
    }
}

layer {
    bottom: "res4j_branch2c"
    top: "res4j_branch2c"
    name: "bn4j_branch2c"
    type: "BatchNorm"
    batch_norm_param {
        use_global_stats: true
    }
    param {
        lr_mult: 0
        decay_mult: 0
    }
    param {
        lr_mult: 0
        decay_mult: 0
    }
    param {
        lr_mult: 0
        decay_mult: 0
    }
}

layer {
    bottom: "res4j_branch2c"
    top: "res4j_branch2c"
    name: "scale4j_branch2c"
    type: "Scale"
    scale_param {
        bias_term: true
    }
    param {
        lr_mult: 0
        decay_mult: 0
    }
    param {
        lr_mult: 0
        decay_mult: 0
    }
}

layer {
    bottom: "res4i"
    bottom: "res4j_branch2c"
    top: "res4j"
    name: "res4j"
    type: "Eltwise"
}

layer {
    bottom: "res4j"
    top: "res4j"
    name: "res4j_relu"
    type: "ReLU"
}   

layer {
    bottom: "res4j"
    top: "res4k_branch2a"
    name: "res4k_branch2a"
    type: "Convolution"
    param {
        lr_mult: 0
        decay_mult: 0
    }
    convolution_param {
        num_output: 256
        kernel_size: 1
        pad: 0
        stride: 1
        bias_term: false
    }
}

layer {
    bottom: "res4k_branch2a"
    top: "res4k_branch2a"
    name: "bn4k_branch2a"
    type: "BatchNorm"
    batch_norm_param {
        use_global_stats: true
    }
    param {
        lr_mult: 0
        decay_mult: 0
    }
    param {
        lr_mult: 0
        decay_mult: 0
    }
    param {
        lr_mult: 0
        decay_mult: 0
    }
}

layer {
    bottom: "res4k_branch2a"
    top: "res4k_branch2a"
    name: "scale4k_branch2a"
    type: "Scale"
    scale_param {
        bias_term: true
    }
    param {
        lr_mult: 0
        decay_mult: 0
    }
    param {
        lr_mult: 0
        decay_mult: 0
    }
}

layer {
    bottom: "res4k_branch2a"
    top: "res4k_branch2a"
    name: "res4k_branch2a_relu"
    type: "ReLU"
}   

layer {
    bottom: "res4k_branch2a"
    top: "res4k_branch2b"
    name: "res4k_branch2b"
    type: "Convolution"
    param {
        lr_mult: 0
        decay_mult: 0
    }
    convolution_param {
        num_output: 256
        kernel_size: 3
        pad: 1
        stride: 1
        bias_term: false
    }
}

layer {
    bottom: "res4k_branch2b"
    top: "res4k_branch2b"
    name: "bn4k_branch2b"
    type: "BatchNorm"
    batch_norm_param {
        use_global_stats: true
    }
    param {
        lr_mult: 0
        decay_mult: 0
    }
    param {
        lr_mult: 0
        decay_mult: 0
    }
    param {
        lr_mult: 0
        decay_mult: 0
    }
}

layer {
    bottom: "res4k_branch2b"
    top: "res4k_branch2b"
    name: "scale4k_branch2b"
    type: "Scale"
    scale_param {
        bias_term: true
    }
    param {
        lr_mult: 0
        decay_mult: 0
    }
    param {
        lr_mult: 0
        decay_mult: 0
    }
}

layer {
    bottom: "res4k_branch2b"
    top: "res4k_branch2b"
    name: "res4k_branch2b_relu"
    type: "ReLU"
}   

layer {
    bottom: "res4k_branch2b"
    top: "res4k_branch2c"
    name: "res4k_branch2c"
    type: "Convolution"
    param {
        lr_mult: 0
        decay_mult: 0
    }
    convolution_param {
        num_output: 1024
        kernel_size: 1
        pad: 0
        stride: 1
        bias_term: false
    }
}

layer {
    bottom: "res4k_branch2c"
    top: "res4k_branch2c"
    name: "bn4k_branch2c"
    type: "BatchNorm"
    batch_norm_param {
        use_global_stats: true
    }
    param {
        lr_mult: 0
        decay_mult: 0
    }
    param {
        lr_mult: 0
        decay_mult: 0
    }
    param {
        lr_mult: 0
        decay_mult: 0
    }
}

layer {
    bottom: "res4k_branch2c"
    top: "res4k_branch2c"
    name: "scale4k_branch2c"
    type: "Scale"
    scale_param {
        bias_term: true
    }
    param {
        lr_mult: 0
        decay_mult: 0
    }
    param {
        lr_mult: 0
        decay_mult: 0
    }
}

layer {
    bottom: "res4j"
    bottom: "res4k_branch2c"
    top: "res4k"
    name: "res4k"
    type: "Eltwise"
}

layer {
    bottom: "res4k"
    top: "res4k"
    name: "res4k_relu"
    type: "ReLU"
}   

layer {
    bottom: "res4k"
    top: "res4l_branch2a"
    name: "res4l_branch2a"
    type: "Convolution"
    param {
        lr_mult: 0
        decay_mult: 0
    }
    convolution_param {
        num_output: 256
        kernel_size: 1
        pad: 0
        stride: 1
        bias_term: false
    }
}

layer {
    bottom: "res4l_branch2a"
    top: "res4l_branch2a"
    name: "bn4l_branch2a"
    type: "BatchNorm"
    batch_norm_param {
        use_global_stats: true
    }
    param {
        lr_mult: 0
        decay_mult: 0
    }
    param {
        lr_mult: 0
        decay_mult: 0
    }
    param {
        lr_mult: 0
        decay_mult: 0
    }
}

layer {
    bottom: "res4l_branch2a"
    top: "res4l_branch2a"
    name: "scale4l_branch2a"
    type: "Scale"
    scale_param {
        bias_term: true
    }
    param {
        lr_mult: 0
        decay_mult: 0
    }
    param {
        lr_mult: 0
        decay_mult: 0
    }
}

layer {
    bottom: "res4l_branch2a"
    top: "res4l_branch2a"
    name: "res4l_branch2a_relu"
    type: "ReLU"
}   

layer {
    bottom: "res4l_branch2a"
    top: "res4l_branch2b"
    name: "res4l_branch2b"
    type: "Convolution"
    param {
        lr_mult: 0
        decay_mult: 0
    }
    convolution_param {
        num_output: 256
        kernel_size: 3
        pad: 1
        stride: 1
        bias_term: false
    }
}

layer {
    bottom: "res4l_branch2b"
    top: "res4l_branch2b"
    name: "bn4l_branch2b"
    type: "BatchNorm"
    batch_norm_param {
        use_global_stats: true
    }
    param {
        lr_mult: 0
        decay_mult: 0
    }
    param {
        lr_mult: 0
        decay_mult: 0
    }
    param {
        lr_mult: 0
        decay_mult: 0
    }
}

layer {
    bottom: "res4l_branch2b"
    top: "res4l_branch2b"
    name: "scale4l_branch2b"
    type: "Scale"
    scale_param {
        bias_term: true
    }
    param {
        lr_mult: 0
        decay_mult: 0
    }
    param {
        lr_mult: 0
        decay_mult: 0
    }
}

layer {
    bottom: "res4l_branch2b"
    top: "res4l_branch2b"
    name: "res4l_branch2b_relu"
    type: "ReLU"
}   

layer {
    bottom: "res4l_branch2b"
    top: "res4l_branch2c"
    name: "res4l_branch2c"
    type: "Convolution"
    param {
        lr_mult: 0
        decay_mult: 0
    }
    convolution_param {
        num_output: 1024
        kernel_size: 1
        pad: 0
        stride: 1
        bias_term: false
    }
}

layer {
    bottom: "res4l_branch2c"
    top: "res4l_branch2c"
    name: "bn4l_branch2c"
    type: "BatchNorm"
    batch_norm_param {
        use_global_stats: true
    }
    param {
        lr_mult: 0
        decay_mult: 0
    }
    param {
        lr_mult: 0
        decay_mult: 0
    }
    param {
        lr_mult: 0
        decay_mult: 0
    }
}

layer {
    bottom: "res4l_branch2c"
    top: "res4l_branch2c"
    name: "scale4l_branch2c"
    type: "Scale"
    scale_param {
        bias_term: true
    }
    param {
        lr_mult: 0
        decay_mult: 0
    }
    param {
        lr_mult: 0
        decay_mult: 0
    }
}

layer {
    bottom: "res4k"
    bottom: "res4l_branch2c"
    top: "res4l"
    name: "res4l"
    type: "Eltwise"
}

layer {
    bottom: "res4l"
    top: "res4l"
    name: "res4l_relu"
    type: "ReLU"
}   

layer {
    bottom: "res4l"
    top: "res4m_branch2a"
    name: "res4m_branch2a"
    type: "Convolution"
    param {
        lr_mult: 0
        decay_mult: 0
    }
    convolution_param {
        num_output: 256
        kernel_size: 1
        pad: 0
        stride: 1
        bias_term: false
    }
}

layer {
    bottom: "res4m_branch2a"
    top: "res4m_branch2a"
    name: "bn4m_branch2a"
    type: "BatchNorm"
    batch_norm_param {
        use_global_stats: true
    }
    param {
        lr_mult: 0
        decay_mult: 0
    }
    param {
        lr_mult: 0
        decay_mult: 0
    }
    param {
        lr_mult: 0
        decay_mult: 0
    }
}

layer {
    bottom: "res4m_branch2a"
    top: "res4m_branch2a"
    name: "scale4m_branch2a"
    type: "Scale"
    scale_param {
        bias_term: true
    }
    param {
        lr_mult: 0
        decay_mult: 0
    }
    param {
        lr_mult: 0
        decay_mult: 0
    }
}

layer {
    bottom: "res4m_branch2a"
    top: "res4m_branch2a"
    name: "res4m_branch2a_relu"
    type: "ReLU"
}   

layer {
    bottom: "res4m_branch2a"
    top: "res4m_branch2b"
    name: "res4m_branch2b"
    type: "Convolution"
    param {
        lr_mult: 0
        decay_mult: 0
    }
    convolution_param {
        num_output: 256
        kernel_size: 3
        pad: 1
        stride: 1
        bias_term: false
    }
}

layer {
    bottom: "res4m_branch2b"
    top: "res4m_branch2b"
    name: "bn4m_branch2b"
    type: "BatchNorm"
    batch_norm_param {
        use_global_stats: true
    }
    param {
        lr_mult: 0
        decay_mult: 0
    }
    param {
        lr_mult: 0
        decay_mult: 0
    }
    param {
        lr_mult: 0
        decay_mult: 0
    }
}

layer {
    bottom: "res4m_branch2b"
    top: "res4m_branch2b"
    name: "scale4m_branch2b"
    type: "Scale"
    scale_param {
        bias_term: true
    }
    param {
        lr_mult: 0
        decay_mult: 0
    }
    param {
        lr_mult: 0
        decay_mult: 0
    }
}

layer {
    bottom: "res4m_branch2b"
    top: "res4m_branch2b"
    name: "res4m_branch2b_relu"
    type: "ReLU"
}   

layer {
    bottom: "res4m_branch2b"
    top: "res4m_branch2c"
    name: "res4m_branch2c"
    type: "Convolution"
    param {
        lr_mult: 0
        decay_mult: 0
    }
    convolution_param {
        num_output: 1024
        kernel_size: 1
        pad: 0
        stride: 1
        bias_term: false
    }
}

layer {
    bottom: "res4m_branch2c"
    top: "res4m_branch2c"
    name: "bn4m_branch2c"
    type: "BatchNorm"
    batch_norm_param {
        use_global_stats: true
    }
    param {
        lr_mult: 0
        decay_mult: 0
    }
    param {
        lr_mult: 0
        decay_mult: 0
    }
    param {
        lr_mult: 0
        decay_mult: 0
    }
}

layer {
    bottom: "res4m_branch2c"
    top: "res4m_branch2c"
    name: "scale4m_branch2c"
    type: "Scale"
    scale_param {
        bias_term: true
    }
    param {
        lr_mult: 0
        decay_mult: 0
    }
    param {
        lr_mult: 0
        decay_mult: 0
    }
}

layer {
    bottom: "res4l"
    bottom: "res4m_branch2c"
    top: "res4m"
    name: "res4m"
    type: "Eltwise"
}

layer {
    bottom: "res4m"
    top: "res4m"
    name: "res4m_relu"
    type: "ReLU"
}   

layer {
    bottom: "res4m"
    top: "res4n_branch2a"
    name: "res4n_branch2a"
    type: "Convolution"
    param {
        lr_mult: 0
        decay_mult: 0
    }
    convolution_param {
        num_output: 256
        kernel_size: 1
        pad: 0
        stride: 1
        bias_term: false
    }
}

layer {
    bottom: "res4n_branch2a"
    top: "res4n_branch2a"
    name: "bn4n_branch2a"
    type: "BatchNorm"
    batch_norm_param {
        use_global_stats: true
    }
    param {
        lr_mult: 0
        decay_mult: 0
    }
    param {
        lr_mult: 0
        decay_mult: 0
    }
    param {
        lr_mult: 0
        decay_mult: 0
    }
}

layer {
    bottom: "res4n_branch2a"
    top: "res4n_branch2a"
    name: "scale4n_branch2a"
    type: "Scale"
    scale_param {
        bias_term: true
    }
    param {
        lr_mult: 0
        decay_mult: 0
    }
    param {
        lr_mult: 0
        decay_mult: 0
    }
}

layer {
    bottom: "res4n_branch2a"
    top: "res4n_branch2a"
    name: "res4n_branch2a_relu"
    type: "ReLU"
}   

layer {
    bottom: "res4n_branch2a"
    top: "res4n_branch2b"
    name: "res4n_branch2b"
    type: "Convolution"
    param {
        lr_mult: 0
        decay_mult: 0
    }
    convolution_param {
        num_output: 256
        kernel_size: 3
        pad: 1
        stride: 1
        bias_term: false
    }
}

layer {
    bottom: "res4n_branch2b"
    top: "res4n_branch2b"
    name: "bn4n_branch2b"
    type: "BatchNorm"
    batch_norm_param {
        use_global_stats: true
    }
    param {
        lr_mult: 0
        decay_mult: 0
    }
    param {
        lr_mult: 0
        decay_mult: 0
    }
    param {
        lr_mult: 0
        decay_mult: 0
    }
}

layer {
    bottom: "res4n_branch2b"
    top: "res4n_branch2b"
    name: "scale4n_branch2b"
    type: "Scale"
    scale_param {
        bias_term: true
    }
    param {
        lr_mult: 0
        decay_mult: 0
    }
    param {
        lr_mult: 0
        decay_mult: 0
    }
}

layer {
    bottom: "res4n_branch2b"
    top: "res4n_branch2b"
    name: "res4n_branch2b_relu"
    type: "ReLU"
}   

layer {
    bottom: "res4n_branch2b"
    top: "res4n_branch2c"
    name: "res4n_branch2c"
    type: "Convolution"
    param {
        lr_mult: 0
        decay_mult: 0
    }
    convolution_param {
        num_output: 1024
        kernel_size: 1
        pad: 0
        stride: 1
        bias_term: false
    }
}

layer {
    bottom: "res4n_branch2c"
    top: "res4n_branch2c"
    name: "bn4n_branch2c"
    type: "BatchNorm"
    batch_norm_param {
        use_global_stats: true
    }
    param {
        lr_mult: 0
        decay_mult: 0
    }
    param {
        lr_mult: 0
        decay_mult: 0
    }
    param {
        lr_mult: 0
        decay_mult: 0
    }
}

layer {
    bottom: "res4n_branch2c"
    top: "res4n_branch2c"
    name: "scale4n_branch2c"
    type: "Scale"
    scale_param {
        bias_term: true
    }
    param {
        lr_mult: 0
        decay_mult: 0
    }
    param {
        lr_mult: 0
        decay_mult: 0
    }
}

layer {
    bottom: "res4m"
    bottom: "res4n_branch2c"
    top: "res4n"
    name: "res4n"
    type: "Eltwise"
}

layer {
    bottom: "res4n"
    top: "res4n"
    name: "res4n_relu"
    type: "ReLU"
}   

layer {
    bottom: "res4n"
    top: "res4o_branch2a"
    name: "res4o_branch2a"
    type: "Convolution"
    param {
        lr_mult: 0
        decay_mult: 0
    }
    convolution_param {
        num_output: 256
        kernel_size: 1
        pad: 0
        stride: 1
        bias_term: false
    }
}

layer {
    bottom: "res4o_branch2a"
    top: "res4o_branch2a"
    name: "bn4o_branch2a"
    type: "BatchNorm"
    batch_norm_param {
        use_global_stats: true
    }
    param {
        lr_mult: 0
        decay_mult: 0
    }
    param {
        lr_mult: 0
        decay_mult: 0
    }
    param {
        lr_mult: 0
        decay_mult: 0
    }
}

layer {
    bottom: "res4o_branch2a"
    top: "res4o_branch2a"
    name: "scale4o_branch2a"
    type: "Scale"
    scale_param {
        bias_term: true
    }
    param {
        lr_mult: 0
        decay_mult: 0
    }
    param {
        lr_mult: 0
        decay_mult: 0
    }
}

layer {
    bottom: "res4o_branch2a"
    top: "res4o_branch2a"
    name: "res4o_branch2a_relu"
    type: "ReLU"
}   

layer {
    bottom: "res4o_branch2a"
    top: "res4o_branch2b"
    name: "res4o_branch2b"
    type: "Convolution"
    param {
        lr_mult: 0
        decay_mult: 0
    }
    convolution_param {
        num_output: 256
        kernel_size: 3
        pad: 1
        stride: 1
        bias_term: false
    }
}

layer {
    bottom: "res4o_branch2b"
    top: "res4o_branch2b"
    name: "bn4o_branch2b"
    type: "BatchNorm"
    batch_norm_param {
        use_global_stats: true
    }
    param {
        lr_mult: 0
        decay_mult: 0
    }
    param {
        lr_mult: 0
        decay_mult: 0
    }
    param {
        lr_mult: 0
        decay_mult: 0
    }
}

layer {
    bottom: "res4o_branch2b"
    top: "res4o_branch2b"
    name: "scale4o_branch2b"
    type: "Scale"
    scale_param {
        bias_term: true
    }
    param {
        lr_mult: 0
        decay_mult: 0
    }
    param {
        lr_mult: 0
        decay_mult: 0
    }
}

layer {
    bottom: "res4o_branch2b"
    top: "res4o_branch2b"
    name: "res4o_branch2b_relu"
    type: "ReLU"
}   

layer {
    bottom: "res4o_branch2b"
    top: "res4o_branch2c"
    name: "res4o_branch2c"
    type: "Convolution"
    param {
        lr_mult: 0
        decay_mult: 0
    }
    convolution_param {
        num_output: 1024
        kernel_size: 1
        pad: 0
        stride: 1
        bias_term: false
    }
}

layer {
    bottom: "res4o_branch2c"
    top: "res4o_branch2c"
    name: "bn4o_branch2c"
    type: "BatchNorm"
    batch_norm_param {
        use_global_stats: true
    }
    param {
        lr_mult: 0
        decay_mult: 0
    }
    param {
        lr_mult: 0
        decay_mult: 0
    }
    param {
        lr_mult: 0
        decay_mult: 0
    }
}

layer {
    bottom: "res4o_branch2c"
    top: "res4o_branch2c"
    name: "scale4o_branch2c"
    type: "Scale"
    scale_param {
        bias_term: true
    }
    param {
        lr_mult: 0
        decay_mult: 0
    }
    param {
        lr_mult: 0
        decay_mult: 0
    }
}

layer {
    bottom: "res4n"
    bottom: "res4o_branch2c"
    top: "res4o"
    name: "res4o"
    type: "Eltwise"
}

layer {
    bottom: "res4o"
    top: "res4o"
    name: "res4o_relu"
    type: "ReLU"
}   

layer {
    bottom: "res4o"
    top: "res4p_branch2a"
    name: "res4p_branch2a"
    type: "Convolution"
    param {
        lr_mult: 0
        decay_mult: 0
    }
    convolution_param {
        num_output: 256
        kernel_size: 1
        pad: 0
        stride: 1
        bias_term: false
    }
}

layer {
    bottom: "res4p_branch2a"
    top: "res4p_branch2a"
    name: "bn4p_branch2a"
    type: "BatchNorm"
    batch_norm_param {
        use_global_stats: true
    }
    param {
        lr_mult: 0
        decay_mult: 0
    }
    param {
        lr_mult: 0
        decay_mult: 0
    }
    param {
        lr_mult: 0
        decay_mult: 0
    }
}

layer {
    bottom: "res4p_branch2a"
    top: "res4p_branch2a"
    name: "scale4p_branch2a"
    type: "Scale"
    scale_param {
        bias_term: true
    }
    param {
        lr_mult: 0
        decay_mult: 0
    }
    param {
        lr_mult: 0
        decay_mult: 0
    }
}

layer {
    bottom: "res4p_branch2a"
    top: "res4p_branch2a"
    name: "res4p_branch2a_relu"
    type: "ReLU"
}   

layer {
    bottom: "res4p_branch2a"
    top: "res4p_branch2b"
    name: "res4p_branch2b"
    type: "Convolution"
    param {
        lr_mult: 0
        decay_mult: 0
    }
    convolution_param {
        num_output: 256
        kernel_size: 3
        pad: 1
        stride: 1
        bias_term: false
    }
}

layer {
    bottom: "res4p_branch2b"
    top: "res4p_branch2b"
    name: "bn4p_branch2b"
    type: "BatchNorm"
    batch_norm_param {
        use_global_stats: true
    }
    param {
        lr_mult: 0
        decay_mult: 0
    }
    param {
        lr_mult: 0
        decay_mult: 0
    }
    param {
        lr_mult: 0
        decay_mult: 0
    }
}

layer {
    bottom: "res4p_branch2b"
    top: "res4p_branch2b"
    name: "scale4p_branch2b"
    type: "Scale"
    scale_param {
        bias_term: true
    }
    param {
        lr_mult: 0
        decay_mult: 0
    }
    param {
        lr_mult: 0
        decay_mult: 0
    }
}

layer {
    bottom: "res4p_branch2b"
    top: "res4p_branch2b"
    name: "res4p_branch2b_relu"
    type: "ReLU"
}   

layer {
    bottom: "res4p_branch2b"
    top: "res4p_branch2c"
    name: "res4p_branch2c"
    type: "Convolution"
    param {
        lr_mult: 0
        decay_mult: 0
    }
    convolution_param {
        num_output: 1024
        kernel_size: 1
        pad: 0
        stride: 1
        bias_term: false
    }
}

layer {
    bottom: "res4p_branch2c"
    top: "res4p_branch2c"
    name: "bn4p_branch2c"
    type: "BatchNorm"
    batch_norm_param {
        use_global_stats: true
    }
    param {
        lr_mult: 0
        decay_mult: 0
    }
    param {
        lr_mult: 0
        decay_mult: 0
    }
    param {
        lr_mult: 0
        decay_mult: 0
    }
}

layer {
    bottom: "res4p_branch2c"
    top: "res4p_branch2c"
    name: "scale4p_branch2c"
    type: "Scale"
    scale_param {
        bias_term: true
    }
    param {
        lr_mult: 0
        decay_mult: 0
    }
    param {
        lr_mult: 0
        decay_mult: 0
    }
}

layer {
    bottom: "res4o"
    bottom: "res4p_branch2c"
    top: "res4p"
    name: "res4p"
    type: "Eltwise"
}

layer {
    bottom: "res4p"
    top: "res4p"
    name: "res4p_relu"
    type: "ReLU"
}   

layer {
    bottom: "res4p"
    top: "res4q_branch2a"
    name: "res4q_branch2a"
    type: "Convolution"
    param {
        lr_mult: 0
        decay_mult: 0
    }
    convolution_param {
        num_output: 256
        kernel_size: 1
        pad: 0
        stride: 1
        bias_term: false
    }
}

layer {
    bottom: "res4q_branch2a"
    top: "res4q_branch2a"
    name: "bn4q_branch2a"
    type: "BatchNorm"
    batch_norm_param {
        use_global_stats: true
    }
    param {
        lr_mult: 0
        decay_mult: 0
    }
    param {
        lr_mult: 0
        decay_mult: 0
    }
    param {
        lr_mult: 0
        decay_mult: 0
    }
}

layer {
    bottom: "res4q_branch2a"
    top: "res4q_branch2a"
    name: "scale4q_branch2a"
    type: "Scale"
    scale_param {
        bias_term: true
    }
    param {
        lr_mult: 0
        decay_mult: 0
    }
    param {
        lr_mult: 0
        decay_mult: 0
    }
}

layer {
    bottom: "res4q_branch2a"
    top: "res4q_branch2a"
    name: "res4q_branch2a_relu"
    type: "ReLU"
}   

layer {
    bottom: "res4q_branch2a"
    top: "res4q_branch2b"
    name: "res4q_branch2b"
    type: "Convolution"
    param {
        lr_mult: 0
        decay_mult: 0
    }
    convolution_param {
        num_output: 256
        kernel_size: 3
        pad: 1
        stride: 1
        bias_term: false
    }
}

layer {
    bottom: "res4q_branch2b"
    top: "res4q_branch2b"
    name: "bn4q_branch2b"
    type: "BatchNorm"
    batch_norm_param {
        use_global_stats: true
    }
    param {
        lr_mult: 0
        decay_mult: 0
    }
    param {
        lr_mult: 0
        decay_mult: 0
    }
    param {
        lr_mult: 0
        decay_mult: 0
    }
}

layer {
    bottom: "res4q_branch2b"
    top: "res4q_branch2b"
    name: "scale4q_branch2b"
    type: "Scale"
    scale_param {
        bias_term: true
    }
    param {
        lr_mult: 0
        decay_mult: 0
    }
    param {
        lr_mult: 0
        decay_mult: 0
    }
}

layer {
    bottom: "res4q_branch2b"
    top: "res4q_branch2b"
    name: "res4q_branch2b_relu"
    type: "ReLU"
}   

layer {
    bottom: "res4q_branch2b"
    top: "res4q_branch2c"
    name: "res4q_branch2c"
    type: "Convolution"
    param {
        lr_mult: 0
        decay_mult: 0
    }
    convolution_param {
        num_output: 1024
        kernel_size: 1
        pad: 0
        stride: 1
        bias_term: false
    }
}

layer {
    bottom: "res4q_branch2c"
    top: "res4q_branch2c"
    name: "bn4q_branch2c"
    type: "BatchNorm"
    batch_norm_param {
        use_global_stats: true
    }
    param {
        lr_mult: 0
        decay_mult: 0
    }
    param {
        lr_mult: 0
        decay_mult: 0
    }
    param {
        lr_mult: 0
        decay_mult: 0
    }
}

layer {
    bottom: "res4q_branch2c"
    top: "res4q_branch2c"
    name: "scale4q_branch2c"
    type: "Scale"
    scale_param {
        bias_term: true
    }
    param {
        lr_mult: 0
        decay_mult: 0
    }
    param {
        lr_mult: 0
        decay_mult: 0
    }
}

layer {
    bottom: "res4p"
    bottom: "res4q_branch2c"
    top: "res4q"
    name: "res4q"
    type: "Eltwise"
}

layer {
    bottom: "res4q"
    top: "res4q"
    name: "res4q_relu"
    type: "ReLU"
}   

layer {
    bottom: "res4q"
    top: "res4r_branch2a"
    name: "res4r_branch2a"
    type: "Convolution"
    param {
        lr_mult: 0
        decay_mult: 0
    }
    convolution_param {
        num_output: 256
        kernel_size: 1
        pad: 0
        stride: 1
        bias_term: false
    }
}

layer {
    bottom: "res4r_branch2a"
    top: "res4r_branch2a"
    name: "bn4r_branch2a"
    type: "BatchNorm"
    batch_norm_param {
        use_global_stats: true
    }
    param {
        lr_mult: 0
        decay_mult: 0
    }
    param {
        lr_mult: 0
        decay_mult: 0
    }
    param {
        lr_mult: 0
        decay_mult: 0
    }
}

layer {
    bottom: "res4r_branch2a"
    top: "res4r_branch2a"
    name: "scale4r_branch2a"
    type: "Scale"
    scale_param {
        bias_term: true
    }
    param {
        lr_mult: 0
        decay_mult: 0
    }
    param {
        lr_mult: 0
        decay_mult: 0
    }
}

layer {
    bottom: "res4r_branch2a"
    top: "res4r_branch2a"
    name: "res4r_branch2a_relu"
    type: "ReLU"
}   

layer {
    bottom: "res4r_branch2a"
    top: "res4r_branch2b"
    name: "res4r_branch2b"
    type: "Convolution"
    param {
        lr_mult: 0
        decay_mult: 0
    }
    convolution_param {
        num_output: 256
        kernel_size: 3
        pad: 1
        stride: 1
        bias_term: false
    }
}

layer {
    bottom: "res4r_branch2b"
    top: "res4r_branch2b"
    name: "bn4r_branch2b"
    type: "BatchNorm"
    batch_norm_param {
        use_global_stats: true
    }
    param {
        lr_mult: 0
        decay_mult: 0
    }
    param {
        lr_mult: 0
        decay_mult: 0
    }
    param {
        lr_mult: 0
        decay_mult: 0
    }
}

layer {
    bottom: "res4r_branch2b"
    top: "res4r_branch2b"
    name: "scale4r_branch2b"
    type: "Scale"
    scale_param {
        bias_term: true
    }
    param {
        lr_mult: 0
        decay_mult: 0
    }
    param {
        lr_mult: 0
        decay_mult: 0
    }
}

layer {
    bottom: "res4r_branch2b"
    top: "res4r_branch2b"
    name: "res4r_branch2b_relu"
    type: "ReLU"
}   

layer {
    bottom: "res4r_branch2b"
    top: "res4r_branch2c"
    name: "res4r_branch2c"
    type: "Convolution"
    param {
        lr_mult: 0
        decay_mult: 0
    }
    convolution_param {
        num_output: 1024
        kernel_size: 1
        pad: 0
        stride: 1
        bias_term: false
    }
}

layer {
    bottom: "res4r_branch2c"
    top: "res4r_branch2c"
    name: "bn4r_branch2c"
    type: "BatchNorm"
    batch_norm_param {
        use_global_stats: true
    }
    param {
        lr_mult: 0
        decay_mult: 0
    }
    param {
        lr_mult: 0
        decay_mult: 0
    }
    param {
        lr_mult: 0
        decay_mult: 0
    }
}

layer {
    bottom: "res4r_branch2c"
    top: "res4r_branch2c"
    name: "scale4r_branch2c"
    type: "Scale"
    scale_param {
        bias_term: true
    }
    param {
        lr_mult: 0
        decay_mult: 0
    }
    param {
        lr_mult: 0
        decay_mult: 0
    }
}

layer {
    bottom: "res4q"
    bottom: "res4r_branch2c"
    top: "res4r"
    name: "res4r"
    type: "Eltwise"
}

layer {
    bottom: "res4r"
    top: "res4r"
    name: "res4r_relu"
    type: "ReLU"
}   

layer {
    bottom: "res4r"
    top: "res4s_branch2a"
    name: "res4s_branch2a"
    type: "Convolution"
    param {
        lr_mult: 0
        decay_mult: 0
    }
    convolution_param {
        num_output: 256
        kernel_size: 1
        pad: 0
        stride: 1
        bias_term: false
    }
}

layer {
    bottom: "res4s_branch2a"
    top: "res4s_branch2a"
    name: "bn4s_branch2a"
    type: "BatchNorm"
    batch_norm_param {
        use_global_stats: true
    }
    param {
        lr_mult: 0
        decay_mult: 0
    }
    param {
        lr_mult: 0
        decay_mult: 0
    }
    param {
        lr_mult: 0
        decay_mult: 0
    }
}

layer {
    bottom: "res4s_branch2a"
    top: "res4s_branch2a"
    name: "scale4s_branch2a"
    type: "Scale"
    scale_param {
        bias_term: true
    }
    param {
        lr_mult: 0
        decay_mult: 0
    }
    param {
        lr_mult: 0
        decay_mult: 0
    }
}

layer {
    bottom: "res4s_branch2a"
    top: "res4s_branch2a"
    name: "res4s_branch2a_relu"
    type: "ReLU"
}   

layer {
    bottom: "res4s_branch2a"
    top: "res4s_branch2b"
    name: "res4s_branch2b"
    type: "Convolution"
    param {
        lr_mult: 0
        decay_mult: 0
    }
    convolution_param {
        num_output: 256
        kernel_size: 3
        pad: 1
        stride: 1
        bias_term: false
    }
}

layer {
    bottom: "res4s_branch2b"
    top: "res4s_branch2b"
    name: "bn4s_branch2b"
    type: "BatchNorm"
    batch_norm_param {
        use_global_stats: true
    }
    param {
        lr_mult: 0
        decay_mult: 0
    }
    param {
        lr_mult: 0
        decay_mult: 0
    }
    param {
        lr_mult: 0
        decay_mult: 0
    }
}

layer {
    bottom: "res4s_branch2b"
    top: "res4s_branch2b"
    name: "scale4s_branch2b"
    type: "Scale"
    scale_param {
        bias_term: true
    }
    param {
        lr_mult: 0
        decay_mult: 0
    }
    param {
        lr_mult: 0
        decay_mult: 0
    }
}

layer {
    bottom: "res4s_branch2b"
    top: "res4s_branch2b"
    name: "res4s_branch2b_relu"
    type: "ReLU"
}   

layer {
    bottom: "res4s_branch2b"
    top: "res4s_branch2c"
    name: "res4s_branch2c"
    type: "Convolution"
    param {
        lr_mult: 0
        decay_mult: 0
    }
    convolution_param {
        num_output: 1024
        kernel_size: 1
        pad: 0
        stride: 1
        bias_term: false
    }
}

layer {
    bottom: "res4s_branch2c"
    top: "res4s_branch2c"
    name: "bn4s_branch2c"
    type: "BatchNorm"
    batch_norm_param {
        use_global_stats: true
    }
    param {
        lr_mult: 0
        decay_mult: 0
    }
    param {
        lr_mult: 0
        decay_mult: 0
    }
    param {
        lr_mult: 0
        decay_mult: 0
    }
}

layer {
    bottom: "res4s_branch2c"
    top: "res4s_branch2c"
    name: "scale4s_branch2c"
    type: "Scale"
    scale_param {
        bias_term: true
    }
    param {
        lr_mult: 0
        decay_mult: 0
    }
    param {
        lr_mult: 0
        decay_mult: 0
    }
}

layer {
    bottom: "res4r"
    bottom: "res4s_branch2c"
    top: "res4s"
    name: "res4s"
    type: "Eltwise"
}

layer {
    bottom: "res4s"
    top: "res4s"
    name: "res4s_relu"
    type: "ReLU"
}   

layer {
    bottom: "res4s"
    top: "res4t_branch2a"
    name: "res4t_branch2a"
    type: "Convolution"
    param {
        lr_mult: 0
        decay_mult: 0
    }
    convolution_param {
        num_output: 256
        kernel_size: 1
        pad: 0
        stride: 1
        bias_term: false
    }
}

layer {
    bottom: "res4t_branch2a"
    top: "res4t_branch2a"
    name: "bn4t_branch2a"
    type: "BatchNorm"
    batch_norm_param {
        use_global_stats: true
    }
    param {
        lr_mult: 0
        decay_mult: 0
    }
    param {
        lr_mult: 0
        decay_mult: 0
    }
    param {
        lr_mult: 0
        decay_mult: 0
    }
}

layer {
    bottom: "res4t_branch2a"
    top: "res4t_branch2a"
    name: "scale4t_branch2a"
    type: "Scale"
    scale_param {
        bias_term: true
    }
    param {
        lr_mult: 0
        decay_mult: 0
    }
    param {
        lr_mult: 0
        decay_mult: 0
    }
}

layer {
    bottom: "res4t_branch2a"
    top: "res4t_branch2a"
    name: "res4t_branch2a_relu"
    type: "ReLU"
}   

layer {
    bottom: "res4t_branch2a"
    top: "res4t_branch2b"
    name: "res4t_branch2b"
    type: "Convolution"
    param {
        lr_mult: 0
        decay_mult: 0
    }
    convolution_param {
        num_output: 256
        kernel_size: 3
        pad: 1
        stride: 1
        bias_term: false
    }
}

layer {
    bottom: "res4t_branch2b"
    top: "res4t_branch2b"
    name: "bn4t_branch2b"
    type: "BatchNorm"
    batch_norm_param {
        use_global_stats: true
    }
    param {
        lr_mult: 0
        decay_mult: 0
    }
    param {
        lr_mult: 0
        decay_mult: 0
    }
    param {
        lr_mult: 0
        decay_mult: 0
    }
}

layer {
    bottom: "res4t_branch2b"
    top: "res4t_branch2b"
    name: "scale4t_branch2b"
    type: "Scale"
    scale_param {
        bias_term: true
    }
    param {
        lr_mult: 0
        decay_mult: 0
    }
    param {
        lr_mult: 0
        decay_mult: 0
    }
}

layer {
    bottom: "res4t_branch2b"
    top: "res4t_branch2b"
    name: "res4t_branch2b_relu"
    type: "ReLU"
}   

layer {
    bottom: "res4t_branch2b"
    top: "res4t_branch2c"
    name: "res4t_branch2c"
    type: "Convolution"
    param {
        lr_mult: 0
        decay_mult: 0
    }
    convolution_param {
        num_output: 1024
        kernel_size: 1
        pad: 0
        stride: 1
        bias_term: false
    }
}

layer {
    bottom: "res4t_branch2c"
    top: "res4t_branch2c"
    name: "bn4t_branch2c"
    type: "BatchNorm"
    batch_norm_param {
        use_global_stats: true
    }
    param {
        lr_mult: 0
        decay_mult: 0
    }
    param {
        lr_mult: 0
        decay_mult: 0
    }
    param {
        lr_mult: 0
        decay_mult: 0
    }
}

layer {
    bottom: "res4t_branch2c"
    top: "res4t_branch2c"
    name: "scale4t_branch2c"
    type: "Scale"
    scale_param {
        bias_term: true
    }
    param {
        lr_mult: 0
        decay_mult: 0
    }
    param {
        lr_mult: 0
        decay_mult: 0
    }
}

layer {
    bottom: "res4s"
    bottom: "res4t_branch2c"
    top: "res4t"
    name: "res4t"
    type: "Eltwise"
}

layer {
    bottom: "res4t"
    top: "res4t"
    name: "res4t_relu"
    type: "ReLU"
}   

layer {
    bottom: "res4t"
    top: "res4u_branch2a"
    name: "res4u_branch2a"
    type: "Convolution"
    param {
        lr_mult: 0
        decay_mult: 0
    }
    convolution_param {
        num_output: 256
        kernel_size: 1
        pad: 0
        stride: 1
        bias_term: false
    }
}

layer {
    bottom: "res4u_branch2a"
    top: "res4u_branch2a"
    name: "bn4u_branch2a"
    type: "BatchNorm"
    batch_norm_param {
        use_global_stats: true
    }
    param {
        lr_mult: 0
        decay_mult: 0
    }
    param {
        lr_mult: 0
        decay_mult: 0
    }
    param {
        lr_mult: 0
        decay_mult: 0
    }
}

layer {
    bottom: "res4u_branch2a"
    top: "res4u_branch2a"
    name: "scale4u_branch2a"
    type: "Scale"
    scale_param {
        bias_term: true
    }
    param {
        lr_mult: 0
        decay_mult: 0
    }
    param {
        lr_mult: 0
        decay_mult: 0
    }
}

layer {
    bottom: "res4u_branch2a"
    top: "res4u_branch2a"
    name: "res4u_branch2a_relu"
    type: "ReLU"
}   

layer {
    bottom: "res4u_branch2a"
    top: "res4u_branch2b"
    name: "res4u_branch2b"
    type: "Convolution"
    param {
        lr_mult: 0
        decay_mult: 0
    }
    convolution_param {
        num_output: 256
        kernel_size: 3
        pad: 1
        stride: 1
        bias_term: false
    }
}

layer {
    bottom: "res4u_branch2b"
    top: "res4u_branch2b"
    name: "bn4u_branch2b"
    type: "BatchNorm"
    batch_norm_param {
        use_global_stats: true
    }
    param {
        lr_mult: 0
        decay_mult: 0
    }
    param {
        lr_mult: 0
        decay_mult: 0
    }
    param {
        lr_mult: 0
        decay_mult: 0
    }
}

layer {
    bottom: "res4u_branch2b"
    top: "res4u_branch2b"
    name: "scale4u_branch2b"
    type: "Scale"
    scale_param {
        bias_term: true
    }
    param {
        lr_mult: 0
        decay_mult: 0
    }
    param {
        lr_mult: 0
        decay_mult: 0
    }
}

layer {
    bottom: "res4u_branch2b"
    top: "res4u_branch2b"
    name: "res4u_branch2b_relu"
    type: "ReLU"
}   

layer {
    bottom: "res4u_branch2b"
    top: "res4u_branch2c"
    name: "res4u_branch2c"
    type: "Convolution"
    param {
        lr_mult: 0
        decay_mult: 0
    }
    convolution_param {
        num_output: 1024
        kernel_size: 1
        pad: 0
        stride: 1
        bias_term: false
    }
}

layer {
    bottom: "res4u_branch2c"
    top: "res4u_branch2c"
    name: "bn4u_branch2c"
    type: "BatchNorm"
    batch_norm_param {
        use_global_stats: true
    }
    param {
        lr_mult: 0
        decay_mult: 0
    }
    param {
        lr_mult: 0
        decay_mult: 0
    }
    param {
        lr_mult: 0
        decay_mult: 0
    }
}

layer {
    bottom: "res4u_branch2c"
    top: "res4u_branch2c"
    name: "scale4u_branch2c"
    type: "Scale"
    scale_param {
        bias_term: true
    }
    param {
        lr_mult: 0
        decay_mult: 0
    }
    param {
        lr_mult: 0
        decay_mult: 0
    }
}

layer {
    bottom: "res4t"
    bottom: "res4u_branch2c"
    top: "res4u"
    name: "res4u"
    type: "Eltwise"
}

layer {
    bottom: "res4u"
    top: "res4u"
    name: "res4u_relu"
    type: "ReLU"
}   

layer {
    bottom: "res4u"
    top: "res4v_branch2a"
    name: "res4v_branch2a"
    type: "Convolution"
    param {
        lr_mult: 0
        decay_mult: 0
    }
    convolution_param {
        num_output: 256
        kernel_size: 1
        pad: 0
        stride: 1
        bias_term: false
    }
}

layer {
    bottom: "res4v_branch2a"
    top: "res4v_branch2a"
    name: "bn4v_branch2a"
    type: "BatchNorm"
    batch_norm_param {
        use_global_stats: true
    }
    param {
        lr_mult: 0
        decay_mult: 0
    }
    param {
        lr_mult: 0
        decay_mult: 0
    }
    param {
        lr_mult: 0
        decay_mult: 0
    }
}

layer {
    bottom: "res4v_branch2a"
    top: "res4v_branch2a"
    name: "scale4v_branch2a"
    type: "Scale"
    scale_param {
        bias_term: true
    }
    param {
        lr_mult: 0
        decay_mult: 0
    }
    param {
        lr_mult: 0
        decay_mult: 0
    }
}

layer {
    bottom: "res4v_branch2a"
    top: "res4v_branch2a"
    name: "res4v_branch2a_relu"
    type: "ReLU"
}   

layer {
    bottom: "res4v_branch2a"
    top: "res4v_branch2b"
    name: "res4v_branch2b"
    type: "Convolution"
    param {
        lr_mult: 0
        decay_mult: 0
    }
    convolution_param {
        num_output: 256
        kernel_size: 3
        pad: 1
        stride: 1
        bias_term: false
    }
}

layer {
    bottom: "res4v_branch2b"
    top: "res4v_branch2b"
    name: "bn4v_branch2b"
    type: "BatchNorm"
    batch_norm_param {
        use_global_stats: true
    }
    param {
        lr_mult: 0
        decay_mult: 0
    }
    param {
        lr_mult: 0
        decay_mult: 0
    }
    param {
        lr_mult: 0
        decay_mult: 0
    }
}

layer {
    bottom: "res4v_branch2b"
    top: "res4v_branch2b"
    name: "scale4v_branch2b"
    type: "Scale"
    scale_param {
        bias_term: true
    }
    param {
        lr_mult: 0
        decay_mult: 0
    }
    param {
        lr_mult: 0
        decay_mult: 0
    }
}

layer {
    bottom: "res4v_branch2b"
    top: "res4v_branch2b"
    name: "res4v_branch2b_relu"
    type: "ReLU"
}   

layer {
    bottom: "res4v_branch2b"
    top: "res4v_branch2c"
    name: "res4v_branch2c"
    type: "Convolution"
    param {
        lr_mult: 0
        decay_mult: 0
    }
    convolution_param {
        num_output: 1024
        kernel_size: 1
        pad: 0
        stride: 1
        bias_term: false
    }
}

layer {
    bottom: "res4v_branch2c"
    top: "res4v_branch2c"
    name: "bn4v_branch2c"
    type: "BatchNorm"
    batch_norm_param {
        use_global_stats: true
    }
    param {
        lr_mult: 0
        decay_mult: 0
    }
    param {
        lr_mult: 0
        decay_mult: 0
    }
    param {
        lr_mult: 0
        decay_mult: 0
    }
}

layer {
    bottom: "res4v_branch2c"
    top: "res4v_branch2c"
    name: "scale4v_branch2c"
    type: "Scale"
    scale_param {
        bias_term: true
    }
    param {
        lr_mult: 0
        decay_mult: 0
    }
    param {
        lr_mult: 0
        decay_mult: 0
    }
}

layer {
    bottom: "res4u"
    bottom: "res4v_branch2c"
    top: "res4v"
    name: "res4v"
    type: "Eltwise"
}

layer {
    bottom: "res4v"
    top: "res4v"
    name: "res4v_relu"
    type: "ReLU"
}   

layer {
    bottom: "res4v"
    top: "res4w_branch2a"
    name: "res4w_branch2a"
    type: "Convolution"
    param {
        lr_mult: 0
        decay_mult: 0
    }
    convolution_param {
        num_output: 256
        kernel_size: 1
        pad: 0
        stride: 1
        bias_term: false
    }
}

layer {
    bottom: "res4w_branch2a"
    top: "res4w_branch2a"
    name: "bn4w_branch2a"
    type: "BatchNorm"
    batch_norm_param {
        use_global_stats: true
    }
    param {
        lr_mult: 0
        decay_mult: 0
    }
    param {
        lr_mult: 0
        decay_mult: 0
    }
    param {
        lr_mult: 0
        decay_mult: 0
    }
}

layer {
    bottom: "res4w_branch2a"
    top: "res4w_branch2a"
    name: "scale4w_branch2a"
    type: "Scale"
    scale_param {
        bias_term: true
    }
    param {
        lr_mult: 0
        decay_mult: 0
    }
    param {
        lr_mult: 0
        decay_mult: 0
    }
}

layer {
    bottom: "res4w_branch2a"
    top: "res4w_branch2a"
    name: "res4w_branch2a_relu"
    type: "ReLU"
}   

layer {
    bottom: "res4w_branch2a"
    top: "res4w_branch2b"
    name: "res4w_branch2b"
    type: "Convolution"
    param {
        lr_mult: 0
        decay_mult: 0
    }
    convolution_param {
        num_output: 256
        kernel_size: 3
        pad: 1
        stride: 1
        bias_term: false
    }
}

layer {
    bottom: "res4w_branch2b"
    top: "res4w_branch2b"
    name: "bn4w_branch2b"
    type: "BatchNorm"
    batch_norm_param {
        use_global_stats: true
    }
    param {
        lr_mult: 0
        decay_mult: 0
    }
    param {
        lr_mult: 0
        decay_mult: 0
    }
    param {
        lr_mult: 0
        decay_mult: 0
    }
}

layer {
    bottom: "res4w_branch2b"
    top: "res4w_branch2b"
    name: "scale4w_branch2b"
    type: "Scale"
    scale_param {
        bias_term: true
    }
    param {
        lr_mult: 0
        decay_mult: 0
    }
    param {
        lr_mult: 0
        decay_mult: 0
    }
}

layer {
    bottom: "res4w_branch2b"
    top: "res4w_branch2b"
    name: "res4w_branch2b_relu"
    type: "ReLU"
}   

layer {
    bottom: "res4w_branch2b"
    top: "res4w_branch2c"
    name: "res4w_branch2c"
    type: "Convolution"
    param {
        lr_mult: 0
        decay_mult: 0
    }
    convolution_param {
        num_output: 1024
        kernel_size: 1
        pad: 0
        stride: 1
        bias_term: false
    }
}

layer {
    bottom: "res4w_branch2c"
    top: "res4w_branch2c"
    name: "bn4w_branch2c"
    type: "BatchNorm"
    batch_norm_param {
        use_global_stats: true
    }
    param {
        lr_mult: 0
        decay_mult: 0
    }
    param {
        lr_mult: 0
        decay_mult: 0
    }
    param {
        lr_mult: 0
        decay_mult: 0
    }
}

layer {
    bottom: "res4w_branch2c"
    top: "res4w_branch2c"
    name: "scale4w_branch2c"
    type: "Scale"
    scale_param {
        bias_term: true
    }
    param {
        lr_mult: 0
        decay_mult: 0
    }
    param {
        lr_mult: 0
        decay_mult: 0
    }
}

layer {
    bottom: "res4v"
    bottom: "res4w_branch2c"
    top: "res4w"
    name: "res4w"
    type: "Eltwise"
}

layer {
    bottom: "res4w"
    top: "res4w"
    name: "res4w_relu"
    type: "ReLU"
}   

#### Add RPN network
layer {
  name: "rpn_conv/3x3"
  type: "Convolution"
  bottom: "res4w"
  top: "rpn/output"
  param { lr_mult: 1.0 }
  param { lr_mult: 2.0 }
  convolution_param {
    num_output: 512
    kernel_size: 3 pad: 1 stride: 1
    weight_filler { type: "gaussian" std: 0.01 }
    bias_filler { type: "constant" value: 0 }
  }
}
layer {
  name: "rpn_relu/3x3"
  type: "ReLU"
  bottom: "rpn/output"
  top: "rpn/output"
}

layer {
  name: "rpn_cls_score"
  type: "Convolution"
  bottom: "rpn/output"
  top: "rpn_cls_score"
  param { lr_mult: 1.0 }
  param { lr_mult: 2.0 }
  convolution_param {
    num_output: 18   # 2(bg/fg) * 9(anchors)
    kernel_size: 1 pad: 0 stride: 1
    weight_filler { type: "gaussian" std: 0.01 }
    bias_filler { type: "constant" value: 0 }
  }
}

layer {
  name: "rpn_bbox_pred"
  type: "Convolution"
  bottom: "rpn/output"
  top: "rpn_bbox_pred"
  param { lr_mult: 1.0 }
  param { lr_mult: 2.0 }
  convolution_param {
    num_output: 36   # 4 * 9(anchors)
    kernel_size: 1 pad: 0 stride: 1
    weight_filler { type: "gaussian" std: 0.01 }
    bias_filler { type: "constant" value: 0 }
  }
}

layer {
   bottom: "rpn_cls_score"
   top: "rpn_cls_score_reshape"
   name: "rpn_cls_score_reshape"
   type: "Reshape"
   reshape_param { shape { dim: 0 dim: 2 dim: -1 dim: 0 } }
}

#========= RoI Proposal ============

layer {
  name: "rpn_cls_prob"
  type: "Softmax"
  bottom: "rpn_cls_score_reshape"
  top: "rpn_cls_prob"
}

layer {
  name: 'rpn_cls_prob_reshape'
  type: 'Reshape'
  bottom: 'rpn_cls_prob'
  top: 'rpn_cls_prob_reshape'
  reshape_param { shape { dim: 0 dim: 18 dim: -1 dim: 0 } }
}

layer {
  name: 'proposal'
  type: 'Python'
  bottom: 'rpn_cls_prob_reshape'
  bottom: 'rpn_bbox_pred'
  bottom: 'im_info'
  top: 'rois'
#  top: 'rpn_scores'
  python_param {
    module: 'rpn.proposal_layer'
    layer: 'ProposalLayer'
    param_str: "'feat_stride': 16"
  }
}

layer {
  name: "roi_pool5"
  type: "ROIPooling"
  bottom: "res4w"
  bottom: "rois"
  top: "roi_pool5"
  roi_pooling_param {
    pooled_w: 7
    pooled_h: 7
    spatial_scale: 0.0625 # 1/16
  }
}

layer {
    bottom: "roi_pool5"
    top: "res5a_branch1"
    name: "res5a_branch1"
    type: "Convolution"
    convolution_param {
        num_output: 2048
        kernel_size: 1
        pad: 0
        stride: 1
        bias_term: false
    }
}

layer {
    bottom: "res5a_branch1"
    top: "res5a_branch1"
    name: "bn5a_branch1"
    type: "BatchNorm"
    batch_norm_param {
        use_global_stats: true
    }
    param {
        lr_mult: 0
        decay_mult: 0
    }
    param {
        lr_mult: 0
        decay_mult: 0
    }
    param {
        lr_mult: 0
        decay_mult: 0
    }
}

layer {
    bottom: "res5a_branch1"
    top: "res5a_branch1"
    name: "scale5a_branch1"
    type: "Scale"
    scale_param {
        bias_term: true
    }
    param {
        lr_mult: 0
        decay_mult: 0
    }
    param {
        lr_mult: 0
        decay_mult: 0
    }
}

layer {
    bottom: "roi_pool5"
    top: "res5a_branch2a"
    name: "res5a_branch2a"
    type: "Convolution"
    convolution_param {
        num_output: 512
        kernel_size: 1
        pad: 0
        stride: 1
        bias_term: false
    }
}

layer {
    bottom: "res5a_branch2a"
    top: "res5a_branch2a"
    name: "bn5a_branch2a"
    type: "BatchNorm"
    batch_norm_param {
        use_global_stats: true
    }
    param {
        lr_mult: 0
        decay_mult: 0
    }
    param {
        lr_mult: 0
        decay_mult: 0
    }
    param {
        lr_mult: 0
        decay_mult: 0
    }
}

layer {
    bottom: "res5a_branch2a"
    top: "res5a_branch2a"
    name: "scale5a_branch2a"
    type: "Scale"
    scale_param {
        bias_term: true
    }
    param {
        lr_mult: 0
        decay_mult: 0
    }
    param {
        lr_mult: 0
        decay_mult: 0
    }
}

layer {
    bottom: "res5a_branch2a"
    top: "res5a_branch2a"
    name: "res5a_branch2a_relu"
    type: "ReLU"
}   

layer {
    bottom: "res5a_branch2a"
    top: "res5a_branch2b"
    name: "res5a_branch2b"
    type: "Convolution"
    convolution_param {
        num_output: 512
        kernel_size: 3
        pad: 1
        stride: 1
        bias_term: false
    }
}

layer {
    bottom: "res5a_branch2b"
    top: "res5a_branch2b"
    name: "bn5a_branch2b"
    type: "BatchNorm"
    batch_norm_param {
        use_global_stats: true
    }
    param {
        lr_mult: 0
        decay_mult: 0
    }
    param {
        lr_mult: 0
        decay_mult: 0
    }
    param {
        lr_mult: 0
        decay_mult: 0
    }
}

layer {
    bottom: "res5a_branch2b"
    top: "res5a_branch2b"
    name: "scale5a_branch2b"
    type: "Scale"
    scale_param {
        bias_term: true
    }
    param {
        lr_mult: 0
        decay_mult: 0
    }
    param {
        lr_mult: 0
        decay_mult: 0
    }
}

layer {
    bottom: "res5a_branch2b"
    top: "res5a_branch2b"
    name: "res5a_branch2b_relu"
    type: "ReLU"
}   

layer {
    bottom: "res5a_branch2b"
    top: "res5a_branch2c"
    name: "res5a_branch2c"
    type: "Convolution"
    convolution_param {
        num_output: 2048
        kernel_size: 1
        pad: 0
        stride: 1
        bias_term: false
    }
}

layer {
    bottom: "res5a_branch2c"
    top: "res5a_branch2c"
    name: "bn5a_branch2c"
    type: "BatchNorm"
    batch_norm_param {
        use_global_stats: true
    }
    param {
        lr_mult: 0
        decay_mult: 0
    }
    param {
        lr_mult: 0
        decay_mult: 0
    }
    param {
        lr_mult: 0
        decay_mult: 0
    }
}

layer {
    bottom: "res5a_branch2c"
    top: "res5a_branch2c"
    name: "scale5a_branch2c"
    type: "Scale"
    scale_param {
        bias_term: true
    }
    param {
        lr_mult: 0
        decay_mult: 0
    }
    param {
        lr_mult: 0
        decay_mult: 0
    }
}

layer {
    bottom: "res5a_branch1"
    bottom: "res5a_branch2c"
    top: "res5a"
    name: "res5a"
    type: "Eltwise"
}

layer {
    bottom: "res5a"
    top: "res5a"
    name: "res5a_relu"
    type: "ReLU"
}   

layer {
    bottom: "res5a"
    top: "res5b_branch2a"
    name: "res5b_branch2a"
    type: "Convolution"
    convolution_param {
        num_output: 512
        kernel_size: 1
        pad: 0
        stride: 1
        bias_term: false
    }
}

layer {
    bottom: "res5b_branch2a"
    top: "res5b_branch2a"
    name: "bn5b_branch2a"
    type: "BatchNorm"
    batch_norm_param {
        use_global_stats: true
    }
    param {
        lr_mult: 0
        decay_mult: 0
    }
    param {
        lr_mult: 0
        decay_mult: 0
    }
    param {
        lr_mult: 0
        decay_mult: 0
    }
}

layer {
    bottom: "res5b_branch2a"
    top: "res5b_branch2a"
    name: "scale5b_branch2a"
    type: "Scale"
    scale_param {
        bias_term: true
    }
    param {
        lr_mult: 0
        decay_mult: 0
    }
    param {
        lr_mult: 0
        decay_mult: 0
    }
}

layer {
    bottom: "res5b_branch2a"
    top: "res5b_branch2a"
    name: "res5b_branch2a_relu"
    type: "ReLU"
}   

layer {
    bottom: "res5b_branch2a"
    top: "res5b_branch2b"
    name: "res5b_branch2b"
    type: "Convolution"
    convolution_param {
        num_output: 512
        kernel_size: 3
        pad: 1
        stride: 1
        bias_term: false
    }
}

layer {
    bottom: "res5b_branch2b"
    top: "res5b_branch2b"
    name: "bn5b_branch2b"
    type: "BatchNorm"
    batch_norm_param {
        use_global_stats: true
    }
    param {
        lr_mult: 0
        decay_mult: 0
    }
    param {
        lr_mult: 0
        decay_mult: 0
    }
    param {
        lr_mult: 0
        decay_mult: 0
    }
}

layer {
    bottom: "res5b_branch2b"
    top: "res5b_branch2b"
    name: "scale5b_branch2b"
    type: "Scale"
    scale_param {
        bias_term: true
    }
    param {
        lr_mult: 0
        decay_mult: 0
    }
    param {
        lr_mult: 0
        decay_mult: 0
    }
}

layer {
    bottom: "res5b_branch2b"
    top: "res5b_branch2b"
    name: "res5b_branch2b_relu"
    type: "ReLU"
}   

layer {
    bottom: "res5b_branch2b"
    top: "res5b_branch2c"
    name: "res5b_branch2c"
    type: "Convolution"
    convolution_param {
        num_output: 2048
        kernel_size: 1
        pad: 0
        stride: 1
        bias_term: false
    }
}

layer {
    bottom: "res5b_branch2c"
    top: "res5b_branch2c"
    name: "bn5b_branch2c"
    type: "BatchNorm"
    batch_norm_param {
        use_global_stats: true
    }
    param {
        lr_mult: 0
        decay_mult: 0
    }
    param {
        lr_mult: 0
        decay_mult: 0
    }
    param {
        lr_mult: 0
        decay_mult: 0
    }
}

layer {
    bottom: "res5b_branch2c"
    top: "res5b_branch2c"
    name: "scale5b_branch2c"
    type: "Scale"
    scale_param {
        bias_term: true
    }
    param {
        lr_mult: 0
        decay_mult: 0
    }
    param {
        lr_mult: 0
        decay_mult: 0
    }
}

layer {
    bottom: "res5a"
    bottom: "res5b_branch2c"
    top: "res5b"
    name: "res5b"
    type: "Eltwise"
}

layer {
    bottom: "res5b"
    top: "res5b"
    name: "res5b_relu"
    type: "ReLU"
}   

layer {
    bottom: "res5b"
    top: "res5c_branch2a"
    name: "res5c_branch2a"
    type: "Convolution"
    convolution_param {
        num_output: 512
        kernel_size: 1
        pad: 0
        stride: 1
        bias_term: false
    }
}

layer {
    bottom: "res5c_branch2a"
    top: "res5c_branch2a"
    name: "bn5c_branch2a"
    type: "BatchNorm"
    batch_norm_param {
        use_global_stats: true
    }
    param {
        lr_mult: 0
        decay_mult: 0
    }
    param {
        lr_mult: 0
        decay_mult: 0
    }
    param {
        lr_mult: 0
        decay_mult: 0
    }
}

layer {
    bottom: "res5c_branch2a"
    top: "res5c_branch2a"
    name: "scale5c_branch2a"
    type: "Scale"
    scale_param {
        bias_term: true
    }
    param {
        lr_mult: 0
        decay_mult: 0
    }
    param {
        lr_mult: 0
        decay_mult: 0
    }
}

layer {
    bottom: "res5c_branch2a"
    top: "res5c_branch2a"
    name: "res5c_branch2a_relu"
    type: "ReLU"
}   

layer {
    bottom: "res5c_branch2a"
    top: "res5c_branch2b"
    name: "res5c_branch2b"
    type: "Convolution"
    convolution_param {
        num_output: 512
        kernel_size: 3
        pad: 1
        stride: 1
        bias_term: false
    }
}

layer {
    bottom: "res5c_branch2b"
    top: "res5c_branch2b"
    name: "bn5c_branch2b"
    type: "BatchNorm"
    batch_norm_param {
        use_global_stats: true
    }
    param {
        lr_mult: 0
        decay_mult: 0
    }
    param {
        lr_mult: 0
        decay_mult: 0
    }
    param {
        lr_mult: 0
        decay_mult: 0
    }
}

layer {
    bottom: "res5c_branch2b"
    top: "res5c_branch2b"
    name: "scale5c_branch2b"
    type: "Scale"
    scale_param {
        bias_term: true
    }
    param {
        lr_mult: 0
        decay_mult: 0
    }
    param {
        lr_mult: 0
        decay_mult: 0
    }
}

layer {
    bottom: "res5c_branch2b"
    top: "res5c_branch2b"
    name: "res5c_branch2b_relu"
    type: "ReLU"
}   

layer {
    bottom: "res5c_branch2b"
    top: "res5c_branch2c"
    name: "res5c_branch2c"
    type: "Convolution"
    convolution_param {
        num_output: 2048
        kernel_size: 1
        pad: 0
        stride: 1
        bias_term: false
    }
}

layer {
    bottom: "res5c_branch2c"
    top: "res5c_branch2c"
    name: "bn5c_branch2c"
    type: "BatchNorm"
    batch_norm_param {
        use_global_stats: true
    }
    param {
        lr_mult: 0
        decay_mult: 0
    }
    param {
        lr_mult: 0
        decay_mult: 0
    }
    param {
        lr_mult: 0
        decay_mult: 0
    }
}

layer {
    bottom: "res5c_branch2c"
    top: "res5c_branch2c"
    name: "scale5c_branch2c"
    type: "Scale"
    scale_param {
        bias_term: true
    }
    param {
        lr_mult: 0
        decay_mult: 0
    }
    param {
        lr_mult: 0
        decay_mult: 0
    }
}

layer {
    bottom: "res5b"
    bottom: "res5c_branch2c"
    top: "res5c"
    name: "res5c"
    type: "Eltwise"
}

layer {
    bottom: "res5c"
    top: "res5c"
    name: "res5c_relu"
    type: "ReLU"
}   

layer {
    bottom: "res5c"
    top: "pool5"
    name: "pool5"
    type: "Pooling"
    pooling_param {
        kernel_size: 7
        stride: 1
        pool: AVE
    }
}

######### Add faster RCNN cls and bbox layer
layer {
  name: "cls_score"
  type: "InnerProduct"
  bottom: "pool5"
  top: "cls_score"
  param {
    lr_mult: 1
  }
  param {
    lr_mult: 2
  }
  inner_product_param {
    num_output: 138
    weight_filler {
      type: "gaussian"
      std: 0.01
    }
    bias_filler {
      type: "constant"
      value: 0
    }
  }
}
layer {
  name: "bbox_pred"
  type: "InnerProduct"
  bottom: "pool5"
  top: "bbox_pred"
  param {
    lr_mult: 1
  }
  param {
    lr_mult: 2
  }
  inner_product_param {
    num_output: 552
    weight_filler {
      type: "gaussian"
      std: 0.001
    }
    bias_filler {
      type: "constant"
      value: 0
    }
  }
}
layer {
    name: "cls_prob"
    type: "Softmax"
    bottom: "cls_score"
    top: "cls_prob"
}
